.dart_tool/chrome-device/Default/optimization_guide_prediction_model_downloads/e18b9fd3-ca5c-48a6-ba53-ebb4eea1efe0/model.tflite (tflite, 409956 bytes, 166 tensors)

context_transformer_0/bottleneck_input/norm/add f4 [32]
-0.01853499 -0.012514245 0.0640077 -0.065925285 0.037511088 -0.07397157 0.091944054 -0.009158472
0.08577462 0.025374606 0.0021567645 -0.077491686 0.079543225 0.04355122 0.02525948 0.1044666
0.08336826 0.008785512 0.017447777 0.011813144 -0.057345726 -0.01127474 -0.040592276 -0.035111852
0.03150463 0.018291216 -0.014161706 -0.056616105 0.02248466 -0.0035058158 0.017014498 0.041168787
00000000: b1d6 97bc 8c08 4dbc 7816 833d d603 87bd
00000010: 3aa5 193d 687e 97bd 2a4d bc3d 6a0d 16bc
00000020: 9baa af3d 68de cf3c 8158 0d3b f6b3 9ebd
00000030: 8fe7 a23d c462 323d f8ec ce3c 96f2 d53d
00000040: fabc aa3d 1cf1 0f3c a4ee 8e3c eb8b 413c
00000050: 5ae3 6abd b0b9 38bc 1644 26bd 72d1 0fbd
00000060: 000b 013d 76d7 953c 8006 68bc 4ae6 67bd
00000070: c031 b83c d4c1 65bb fd61 8b3c 9aa0 283d

context_transformer_1/bottleneck_input/norm/add f4 [32]
0.0033262363 0.09802857 -0.20946848 0.0069205044 0.013061805 -0.1670749 0.004778307 0.09632323
0.007149672 -0.007083143 -0.08439218 -0.03597342 -0.178266 0.0062215053 0.056387167 0.085978836
-0.009745153 0.12200929 0.27923185 0.078816794 0.099952295 0.09518083 -0.12265131 -0.033063777
0.05778428 0.063967936 0.18817723 0.09251416 0.032612957 -0.10939455 -0.07751158 -0.017795725
00000000: fcfc 593b 34c3 c83d e87e 56be 66c5 e23b
00000010: 2e01 563c af15 2bbe 5893 9c3b 1d45 c53d
00000020: cc47 ea3b b619 e8bb cfd5 acbd dd58 13bd
00000030: 5d8b 36be c5dd cb3b 3bf6 663d ac15 b03d
00000040: 22aa 1fbc 02e0 f93d 7af7 8e3e b36a a13d
00000050: cab3 cc3d 2bee c23d 9c30 fbbd e26d 07bd
00000060: 36af 6c3d 9f01 833d 88b1 403e 1078 bd3d
00000070: 2a95 053d 400a e0bd 64be 9ebd 57c8 91bc

mention_transformer_0/bottleneck_input/norm/add f4 [32]
0.056240994 0.2438542 0.03916291 -0.17041427 0.06167641 0.10058264 0.028952532 -0.05122116
0.080621764 -0.041376173 0.16006054 -0.06555896 0.021731082 0.13626733 -0.02156172 -0.067246936
-0.24723706 0.20640668 -0.062198356 0.010082764 0.17122269 0.14847529 -0.042087257 -0.21223027
0.047013175 -0.040326953 0.0036359602 0.03398134 -0.076819375 0.10218759 0.08704515 0.23419315
00000000: f55c 663d eab4 793e 4a69 203d 1481 2ebe
00000010: 67a0 7c3d 45fe cd3d dc2d ed3c 47cd 51bd
00000020: 061d a53d 107a 29bd e9e6 233e c743 86bd
00000030: 6205 b23c aa89 0b3e 34a2 b0bc c3b8 89bd
00000040: b62b 7dbe 465c 533e b4c3 7ebd 2d32 253c
00000050: 0055 2f3e e809 183e b063 2cbd e452 59be
00000060: e390 403d e02d 25bd 4a49 6e3b 0430 0b3d
00000070: 7a53 9dbd ba47 d13d ba44 b23d 54d0 6f3e

mention_transformer_1/bottleneck_input/norm/add f4 [32]
0.351431 -0.06306684 -0.2848776 0.07103959 0.09752943 0.39567542 -0.43053547 -0.039437372
-0.00089280866 -0.12121382 0.13401371 -0.25440535 0.02260343 0.05042094 0.020534538 0.066726044
-0.43595982 -0.24468055 0.037094828 0.18526329 -0.14706987 0.06722915 0.1874547 -0.13992178
-0.08905691 -0.0054247156 -0.30042514 -0.40717137 -0.097556956 0.10473698 -0.22442098 -0.04161598
00000000: c4ee b33e 3029 81bd 7adb 91be 347d 913d
00000010: 83bd c73d f895 ca3e 256f dcbe 1589 21bd
00000020: 600b 6aba f43e f8bd e43a 093e 6b41 82be
00000030: d42a b93c 3086 4e3d 0c38 a83c aaa7 883d
00000040: 2036 dfbe 8a8d 7abe bff0 173d a9b5 3d3e
00000050: 7c99 16be 70af 893d 20f4 3f3e a847 0fbe
00000060: 7863 b6bd d0c1 b1bb 53d1 99be c478 d0be
00000070: f1cb c7bd 5780 d63d 9dce 65be 8575 2abd

context_transformer_0/attention/value/add;context_transformer_0/attention/value/einsum/Einsum;context_transformer_0/attention/value/add/ReadVariableOp/resource f4 [32]
-0.004731415 -0.022408793 -0.0029392515 0.002467769 -0.00013952509 0.045812733 0.06129977 -0.0039337883
-0.025457317 -0.07835014 -0.026083361 0.009121839 0.031143913 -0.023440205 0.044277627 0.001321213
-0.050487943 0.041792877 -0.089282975 -0.015816486 -0.0061999927 0.0019106771 0.026078321 0.021642754
-0.037018985 0.090986095 0.1134881 0.038206782 0.072726 -0.060454056 0.04591832 -0.024604844
00000000: fc09 9bbb a592 b7bc 75a0 40bb 4bba 213b
00000010: 7b4d 12b9 22a6 3b3d 7815 7b3d 02e7 80bb
00000020: dd8b d0bc 0a76 a0bd c6ac d5bc c473 153c
00000030: 8521 ff3c ac05 c0bc 755c 353d 8d2c ad3a
00000040: 72cc 4ebd 022f 2b3d fed9 b6bd 9391 81bc
00000050: 4f29 cbbb af6f fa3a 34a2 d53c 254c b13c
00000060: 38a1 17bd eb56 ba3d 736c e83d b77e 1c3d
00000070: 5ef1 943d ac9e 77bd d914 3c3d 1990 c9bc

context_transformer_0/bottleneck_input/norm/mul f4 [32, 32]
0.38732913 -0.6559962 0.43278882 -0.23914082 0.10762488 0.06778274 -0.5290874 -0.062680215
-0.30487153 0.012946895 -0.110496834 -0.44664764 -0.12798546 -0.24764271 -0.45435423 -0.43187004
0.6284429 -0.5246953 0.054994736 -0.63728124 -0.19489805 -0.24312538 0.2484587 0.12530576
0.086441234 0.07816457 0.18914922 0.14889911 0.23991387 -0.05668078 0.34842473 -0.4744616
0.17850606 -0.07800691 0.15089846 0.08638887 0.23139408 0.0065966453 -0.79147744 -0.023603411
0.33035582 -0.11526102 -0.41830382 -0.10063966 0.081919424 -0.28699926 -0.020747924 0.055237547
-0.23784627 0.013130014 -0.13671333 0.1615414 0.037234474 -0.4290738 0.34128076 -0.503838
-0.50326073 0.094034225 -0.1735069 -0.16127492 -0.22620183 -0.13292214 -0.0541486 -0.14317298
-0.0013367312 0.06859503 0.13606335 -0.024966167 0.025197592 -0.15178902 0.2138854 -0.0028559663
0.03989165 0.09752433 0.07200559 0.052691393 -0.08115098 -0.038285863 0.06623102 0.15005116
-0.04867289 -0.14366807 0.26884767 -0.024022643 -0.06493839 0.23215158 -0.19165191 0.12706514
-0.1273073 0.026224025 0.098977394 -0.046825487 0.094547935 -0.15241058 -0.0044312417 0.10198872
0.4385321 0.17912039 -0.16699651 0.1398904 -0.191556 -0.02714017 0.13872172 0.025190681
0.091310516 0.18189624 -0.26937717 -0.020024724 -0.20578443 0.06779077 0.050223425 -0.07420073
0.32992992 0.27873844 -0.2309916 0.01669873 0.18484011 0.07140386 0.18886119 0.12909809
-0.023876041 0.4314326 0.08699861 0.024029939 -0.26796356 -0.089485146 -0.08476942 0.10867951
0.005466302 0.048201215 -0.027657546 0.16931546 0.38753188 0.010227297 0.43672732 0.11961624
0.23396076 0.12310423 0.058012888 -0.23170355 -0.05851642 0.062305313 -0.4041897 0.13877031
0.27909213 -0.10869454 0.16816269 0.2467778 -0.48262954 0.070962 -0.16280589 0.4457296
0.3005106 0.09235977 0.0687076 -0.37481388 0.042983226 0.1837679 -0.15482667 -0.33264726
0.38874504 -0.4487767 -0.07540888 -0.116079226 0.017542487 -0.044622272 0.3647204 0.18606168
0.24038915 -0.0351641 0.33585638 0.023079604 0.24041201 0.048461355 0.06818157 0.46690455
0.30994987 -0.18211971 0.2877919 -0.091323 -0.09607756 -0.0662879 0.12932962 -0.0061924355
0.09433016 0.3503099 0.12266403 -0.050968193 0.1894111 -0.32618916 -0.155329 -0.7542484
0.25715864 -0.2807958 0.20537953 -0.053246405 0.09587245 -0.18015899 -0.65097326 0.18868211
-0.30427524 -0.17464909 0.048825603 -0.11931111 0.04646813 -0.09966997 0.0934467 0.12503648
0.4354051 -0.36387292 -0.2424958 0.19237942 0.2623401 0.10216177 0.04762036 0.1934765
-0.014781249 -0.028720913 -0.04744042 0.25813964 -0.35627753 0.13784225 -0.7249755 0.13353243
0.32115614 0.16116427 -0.048976634 0.009565539 0.015471925 0.016711459 -0.5785837 0.10327045
0.049163166 -0.028170876 -0.28259403 0.29459748 0.09604477 -0.08444912 -0.08031295 -0.4167022
0.27534434 0.43092218 0.20018281 -0.23291402 0.4205167 -0.03638781 0.0966673 -0.24355721
-0.20845847 -0.010720813 -0.7173152 0.36409023 0.49059266 -0.34637907 0.14363769 -0.3025277
00000000: 0150 c63e 5eef 27bf 7f96 dd3e 55e1 74be
00000010: 6f6a dc3d add1 8a3d 4672 07bf 7c5e 80bd
00000020: 1f18 9cbe 371f 543c 2a4c e2bd 00af e4be
00000030: 9f0e 03be 0d96 7dbe 1ea1 e8be 121e ddbe
00000040: a2e1 203f 6e52 06bf 2942 613d dd24 23bf
00000050: 5b93 47be dcf5 78be f56b 7e3e 2750 003e
00000060: 1a08 b13d bf14 a03d 55b0 413e 0279 183e
00000070: fbab 753e 1b2a 68bd ba64 b23e a1ec f2be
00000080: 4bca 363e 16c2 9fbd 2085 1a3e a6ec b03d
00000090: 92f2 6c3e ac28 d83b 449e 4abf f15b c1bc
000000a0: 6624 a93e f80d ecbd eb2b d6be 2b1c cebd
000000b0: 5fc5 a73d 91f1 92be 8df7 a9bc c440 623d
000000c0: f98d 73be 451f 573c 94fe 0bbe 1c6b 253e
000000d0: 2d83 183d 90af dbbe 5abc ae3e 87fb 00bf
000000e0: b2d5 00bf 0495 c03d cbab 31be 4125 25be
000000f0: 74a1 67be be1c 08be ecca 5dbd f09b 12be
00000100: 4235 afba 8d7b 8c3d 3154 0b3e d985 ccbc
00000110: 2e6b ce3c 956e 1bbe c604 5b3e 2a2b 3bbb
00000120: 6d65 233d d6ba c73d ab77 933d eed2 573d
00000130: 7c32 a6bd a3d1 1cbd 21a4 873d 03a7 193e
00000140: 395d 47bd b91d 13be 67a6 893e 22cb c4bc
00000150: 6bfe 84bd 25b9 6d3e 6640 44be 5d1d 023e
00000160: d85c 02be c4d3 d63c a9b4 ca3d 15cc 3fbd
00000170: 59a2 c13d 8511 1cbe f333 91bb 76df d03d
00000180: 4887 e03e 566b 373e 2201 2bbe 6e3f 0f3e
00000190: 4227 44be 1055 debc 110d 0e3e b05c ce3c
000001a0: 0201 bb3d 0243 3a3e ceeb 89be e40a a4bc
000001b0: 27b9 52be e3d5 8a3d 14b7 4d3d 8df6 97bd
000001c0: 93ec a83e ceb6 8e3e 1089 6cbe c6cb 883c
000001d0: ba46 3d3e 303c 923d d464 413e 4a32 043e
000001e0: b097 c3bc bce4 dc3e 542c b23d 6fda c43c
000001f0: 8532 89be fd43 b7bd 979b adbd 5d93 de3d
00000200: aa1e b33b a36e 453d 1492 e2bc 0861 2d3e
00000210: 946a c63e 6590 273c b99a df3e 5cf9 f43d
00000220: 6993 6f3e 121e fc3d ec9e 6d3d b243 6dbe
00000230: eaae 6fbd db33 7f3d f4f1 cebe ce19 0e3e
00000240: 2ae5 8e3e 3e9b debd d732 2c3e 52b3 7c3e
00000250: 381b f7be 8654 913d 96b6 26be ac36 e43e
00000260: 86dc 993e 1e27 bd3d 92b6 8c3d 9be7 bfbe
00000270: 2e0f 303d a72d 3c3e e28a 1ebe be50 aabe
00000280: 9709 c73e 0fc6 e5be f96f 9abd f2ba edbd
00000290: 43b5 8f3c d8c5 36bd a2bc ba3e f486 3e3e
000002a0: 9328 763e 3b08 10bd 5ef5 ab3e 7011 bd3c
000002b0: 912e 763e 6a7f 463d c7a2 8b3d 1d0e ef3e
000002c0: c0b1 9e3e 977d 3abe 7659 933e 8e07 bbbd
000002d0: 50c4 c4bd f3c1 87bd fc6e 043e eae9 cabb
000002e0: 2c30 c13d d25b b33e 4737 fb3d 06c4 50bd
000002f0: fcf4 413e 4402 a7be 910e 1fbe 6c16 41bf
00000300: 4caa 833e 78c4 8fbe 034f 523e e718 5abd
00000310: c658 c43d 997b 38be 2fa6 26bf e235 413e
00000320: f7c9 9bbe 36d7 32be 5bfd 473d 6259 f4bd
00000330: 5e55 3e3d c51f ccbd fc60 bf3d 9009 003e
00000340: 6bed de3e 8d4d babe d250 78be 1cff 443e
00000350: 7151 863e 313a d13d 910d 433d b41e 463e
00000360: 0d2d 72bc 1f48 ebbc e350 42bd e12a 843e
00000370: 026a b6be 8526 0d3e ff97 39bf babc 083e
00000380: 946e a43e 3f08 253e b99b 48bd c7b8 1c3c
00000390: f57d 7d3c 78e6 883c 101e 14bf 757f d33d
000003a0: 515f 493d 9cc6 e6bc 2ab0 90be 7bd5 963e
000003b0: 1fb3 c43d a9f3 acbd 1e7b a4bd fe59 d5be
000003c0: eff9 8c3e d5a1 dc3e b9fc 4c3e 0381 6ebe
000003d0: f74d d73e 620b 15bd 81f9 c53d 1067 79be
000003e0: 2376 55be 59a6 2fbc f8a1 37bf 096a ba3e
000003f0: f62e fb3e 9958 b1be c215 133e e9e4 9abe

context_transformer_0/kq_shared_bottleneck/norm/mul;context_transformer_0/kq_shared_bottleneck/norm/add;context_transformer_0/attention/key/einsum/Einsum;context_transformer_0/attention/key/add;context_transformer_0/attention/value/einsum/Einsum;context_transformer_0/attention/key/add/ReadVariableOp/resource f4 [32]
0.12984364 -0.102708295 -0.30141822 0.15604967 0.34285003 0.13450405 -0.08349541 -0.10953126
0.16165589 -0.3422081 -0.20113623 -0.069030724 0.122699164 -0.18137074 0.46573353 -0.45066783
-0.01230682 0.1112205 -0.17677352 -0.6283308 -0.029317874 -0.08435766 0.6175451 0.12958954
0.22159748 -0.23237309 -0.4931221 0.16509403 0.07811587 0.3251701 -0.07099351 -0.15449107
00000000: bbf5 043e ba58 d2bd 7d53 9abe 7ccb 1f3e
00000010: 0a8a af3e 6ebb 093e a4ff aabd ed51 e0bd
00000020: 1f89 253e e635 afbe a8f6 4dbe fb5f 8dbd
00000030: b349 fb3d 40b9 39be a074 ee3e efbd e6be
00000040: 8ba2 49bc 93c7 e33d 1e04 35be 4ada 20bf
00000050: 0a2c f0bc b5c3 acbd 7017 1e3f 1fb3 043e
00000060: 73ea 623e 36f3 6dbe 807a fcbe 690e 293e
00000070: 37fb 9f3d b27c a63e 0c65 91bd e832 1ebe

context_transformer_0/kq_shared_bottleneck/norm/mul;context_transformer_0/kq_shared_bottleneck/norm/add;context_transformer_0/attention/key/einsum/Einsum;context_transformer_0/attention/key/add;context_transformer_0/attention/value/einsum/Einsum;context_transformer_0/attention/key/add/ReadVariableOp/resource1 f4 [32, 32]
0.31757903 -0.34347445 0.002077141 0.2630074 0.066471025 0.15863009 0.02746435 -0.18534127
0.23666753 0.10728548 0.13980775 0.0032170732 -0.046122544 0.025946375 0.13429603 0.21344924
-0.24071057 0.08190971 -0.12894888 0.21578611 -0.044254303 0.091608845 0.3065456 -0.08511836
-0.32338107 -0.030813077 0.1001717 -0.08965582 -0.08916403 -0.046459083 0.011487322 -0.1345858
0.50834674 -0.2225293 -0.17785674 0.30637717 0.19152509 -0.3441573 -0.4361432 -0.07939035
-0.020184018 -0.31471607 0.082913324 0.12858325 0.14854524 -0.0818736 0.067651555 -0.07530618
0.0034414988 0.16726063 -0.069321774 0.24676791 0.03874291 -0.24429086 0.5162701 -0.35838652
-0.28306213 0.23183137 -0.24728179 0.10269292 -0.15104118 -0.12563708 -0.06861005 -0.06801761
0.30600652 0.27308974 0.028753873 -0.6555328 0.18441461 -0.08081406 -0.05465977 0.16279534
-0.027841616 -0.055490196 0.04303508 -0.024178375 0.023393694 0.096760154 -0.38443422 0.020247603
0.3014109 0.036124934 -0.021438258 -0.5544265 -0.023859892 0.4455367 -0.23448211 -0.14310859
0.28261888 -0.1632378 -0.067547694 -0.05753302 -0.3254367 -0.022281135 -0.030205814 -0.08767358
0.25026864 -0.3174771 -0.061207507 0.21142775 0.011227979 -0.067475386 -0.1118947 -0.07846662
0.19627847 0.008693466 0.18284637 0.087662525 -0.08864325 -0.036975842 0.16450113 0.011973215
-0.20270635 0.22911586 -0.20870636 0.19091944 0.08905551 -0.12590367 0.25346386 -0.15601194
-0.38289234 -0.038351312 -0.040017024 -0.006206979 -0.13703865 -0.027796326 -0.04790565 0.022766573
-0.3500322 -0.24672917 0.023925563 0.70888317 -0.21044205 0.09035322 0.0742697 -0.25135002
0.023263277 0.08648492 -0.05900437 -0.03360406 -0.050272595 -0.082130104 0.4009488 -0.024901725
-0.31012183 -0.070124246 0.014527178 0.50825286 0.03863788 -0.40307584 0.15944205 0.1715107
-0.2710018 0.104280874 0.04764999 0.028748004 0.3809895 0.025097594 0.048352 0.12287962
0.33069956 -0.34436274 -0.035241455 0.27516207 0.10858883 -0.07494567 -0.124791734 -0.05252562
0.13954441 -0.03263689 0.12883443 0.044290554 -0.024753716 0.006197381 0.08298484 0.012157844
-0.21447988 0.17430522 -0.17205608 0.19840373 0.014904373 -0.11474809 0.35597637 -0.19512275
-0.38896546 0.0071843727 -0.045075387 -0.0022104438 -0.1361774 -0.08349121 -0.054330368 0.029990925
-0.3251837 0.38444844 -0.011935313 -0.24186356 -0.18175232 -0.04712006 0.10229365 0.16511774
-0.13403006 -0.0011531329 -0.0835819 -0.045802716 -0.05543673 -0.10497376 -0.037516717 -0.10987761
0.14788839 -0.08664009 0.114749886 -0.19013685 0.041971453 -0.0719994 -0.4646114 0.13665043
0.36034372 -0.09793607 -0.021587368 0.08445423 0.10301612 0.1412982 -0.024565425 0.14846401
-0.39601338 0.3006471 0.027253203 -0.23090835 -0.039432574 0.057389606 0.11494246 0.08066959
-0.18534091 0.024890488 -0.14279173 -0.030923696 0.003194857 0.0414421 -0.15492903 -0.07816052
0.14912309 -0.22112483 0.17231578 -0.22662812 -0.009349817 0.05791965 -0.37241313 0.21984543
0.3441178 0.009975752 0.018673256 0.01536559 0.15948895 0.06747213 0.027482633 0.028191647
00000000: b899 a23e e2db afbe a520 083b e8a8 863e
00000010: f621 883d ed6f 223e ebfc e03c 1aca 3dbe
00000020: f958 723e 7db8 db3d c329 0f3e 88d5 523b
00000030: feea 3cbd 7e8d d43c e684 093e 7092 5a3e
00000040: d57c 76be 47c0 a73d 2d0b 04be 09f7 5c3e
00000050: 0044 35bd 6b9d bb3d 8bf3 9c3e 8952 aebd
00000060: 3492 a5be b56b fcbc d226 cd3d 789d b7bd
00000070: a29b b6bd e14b 3ebd 5235 3c3c dcd0 09be
00000080: 0323 023f b9de 63be 1420 36be 78dd 9c3e
00000090: 271f 443e 6335 b0be 294e dfbe 6897 a2bd
000000a0: f458 a5bc 7722 a1be 76ce a93d 54ab 033e
000000b0: 3e1c 183e 59ad a7bd e68c 8a3d 203a 9abd
000000c0: c58a 613b 5f46 2b3e 93f8 8dbd bab0 7c3e
000000d0: e3b0 1e3d 6227 7abe 472a 043f 707e b7be
000000e0: 85ed 90be 3465 6d3e 7037 7dbe aa50 d23d
000000f0: 8aaa 1abe 02a7 00be 6d83 8cbd d14c 8bbd
00000100: e3ac 9c3e 6bd2 8b3e 3e8d eb3c ffd0 27bf
00000110: 2fd7 3c3e d881 a5bd ece2 5fbd d2b3 263e
00000120: 1a14 e4bc b049 63bd 8d45 303d ba11 c6bc
00000130: 22a4 bf3c 302a c63d 90d4 c4be 4dde a53c
00000140: 8852 9a3e bdf7 133d 499f afbc e5ee 0dbf
00000150: d275 c3bc 631d e43e 141c 70be 0f8b 12be
00000160: 6cb3 903e cf27 27be 7256 8abd bea7 6bbd
00000170: a49f a6be ed86 b6bc 2f72 f7bc 358e b3bd
00000180: 3623 803e 5c8c a2be b9b4 7abd 8480 583e
00000190: 8ff5 373c 8930 8abd 0c29 e5bd 1bb3 a0bd
000001a0: 39fd 483e 0a6f 0e3c 143c 3b3e 6988 b33d
000001b0: 988a b5bd fb73 17bd fc72 283e 4e2b 443c
000001c0: 4192 4fbe 599d 6a3e 1fb7 55be 6380 433e
000001d0: bc62 b63d e4ec 00be 04c6 813e 98c1 1fbe
000001e0: 770a c4be 4416 1dbd e4e8 23bd ea63 cbbb
000001f0: dc53 0cbe 1fb5 e3bc b738 44bd f780 ba3c
00000200: 6c37 b3be 92a6 7cbe 8bff c33c 5e79 353f
00000210: 1f7e 57be 1c0b b93d b61a 983d f3b0 80be
00000220: a192 be3c 011f b13d 91ae 71bd 69a4 09bd
00000230: a3ea 4dbd d433 a8bd 2949 cd3e b4fe cbbc
00000240: 4ac8 9ebe 4d9d 8fbd 6703 6e3c dc1c 023f
00000250: c142 1e3d f55f cebe c744 233e 80a0 2f3e
00000260: bfc0 8abe 3691 d53d a32c 433d ef80 eb3c
00000270: 0e11 c33e 7899 cd3c bf0c 463d 4fa8 fb3d
00000280: 7451 a93e 5050 b0be 5859 10bd 0be2 8c3e
00000290: d263 de3d 1e7d 99bd cf92 ffbd 1b25 57bd
000002a0: bbe4 0e3e 42ae 05bd 2ced 033e 036a 353d
000002b0: 4ec8 cabc 6613 cb3b f5f3 a93d b231 473c
000002c0: 9da0 5bbe 117d 323e 782f 30be 592a 4b3e
000002d0: 7931 743c 0c01 ebbd 8942 b63e 42ce 47be
000002e0: 7b26 c7be e36a eb3b f8a0 38bd 18dd 10bb
000002f0: 1772 0bbe 71fd aabd 8589 5ebd 87af f53c
00000300: 7a7e a6be 6dd6 c43e 558c 43bc 15ab 77be
00000310: 481d 3abe f700 41bd 557f d13d a014 293e
00000320: 2d3f 09be b824 97ba fd2c abbd a19b 3bbd
00000330: a011 63bd 7cfc d6bd 21ab 19bd 8307 e1bd
00000340: 0e70 173e 5c70 b1bd fd01 eb3d 3cb3 42be
00000350: 42ea 2b3d 6c74 93bd 8ce1 edbe 17ee 0b3e
00000360: f97e b83e b592 c8bd fed7 b0bc 57f6 ac3d
00000370: 1efa d23d 7ab0 103e 6e3d c9bc f306 183e
00000380: 44c2 cabe 6bee 993e 1c42 df3c 3d73 6cbe
00000390: 0d84 21bd 5d11 6b3d f466 eb3d 1936 a53d
000003a0: 02ca 3dbe 23e7 cb3c ff37 12be b153 fdbc
000003b0: ce60 513b 31bf 293d b7a5 1ebe 9f12 a0bd
000003c0: b9b3 183e 8c6e 62be 8c73 303e 3411 68be
000003d0: fa2f 19bc 283d 6d3d efac bebe 291f 613e
000003e0: 3530 b03e 5671 233c a8f8 983c f5bf 7b3c
000003f0: 1251 233e d42e 8a3d 4223 e13c 2bf2 e63c

context_transformer_0/kq_shared_bottleneck/norm/mul;context_transformer_0/kq_shared_bottleneck/norm/add;context_transformer_0/attention/query/einsum/Einsum;context_transformer_0/attention/query/add;context_transformer_0/attention/value/einsum/Einsum;context_transformer_0/attention/query/add/ReadVariableOp/resource;context_transformer_0/attention/Mul;context_transformer_0/attention/Mul/y f4 [32]
0.14441137 0.15669803 -0.057951283 0.08813521 0.04095841 0.0981346 -0.15485924 -0.11680841
-0.23440865 0.057399344 0.20305136 0.16126466 -0.23659831 0.08712976 -0.19676955 0.26337793
-0.16468365 -0.24583627 0.25208157 0.19340107 0.21839815 0.2320624 -0.33825314 -0.25935417
0.16188174 0.024922278 0.26204202 -0.17646652 -0.20108072 0.08344045 0.2283229 -0.1715608
00000000: 93e0 133e 7375 203e 535e 6dbd 3c80 b43d
00000010: 01c4 273d cbfa c83d 6c93 1ebe 3f39 efbd
00000020: d208 70be 931b 6b3d b2ec 4f3e 9022 253e
00000030: d446 72be 1671 b23d f57d 49be 79d9 863e
00000040: d5a2 28be 81bc 7bbe d610 813e ee0a 463e
00000050: c4a3 5f3e c4a1 6d3e 842f adbe 12ca 84be
00000060: 54c4 253e ce29 cc3c 5f2a 863e a4b3 34be
00000070: 1be8 4dbe d4e2 aa3d 7acd 693e a2ad 2fbe

context_transformer_0/kq_shared_bottleneck/norm/mul;context_transformer_0/kq_shared_bottleneck/norm/add;context_transformer_0/attention/query/einsum/Einsum;context_transformer_0/attention/query/add;context_transformer_0/attention/value/einsum/Einsum;context_transformer_0/attention/query/add/ReadVariableOp/resource;context_transformer_0/attention/Mul;context_transformer_0/attention/Mul/y1 f4 [32, 32]
-0.039334882 0.0038849185 0.049626183 -0.07974796 0.010560405 0.102619156 0.07003253 -0.012797978
0.054976624 0.1093625 0.03541111 -0.07272744 -0.0329527 -0.0091999145 -0.00818517 0.056365155
-0.06815061 0.030336747 -0.047821406 -0.037813596 0.017117878 0.018771315 -0.042676456 0.06069937
-0.013294389 -0.05909548 0.07710574 -0.06018235 0.003013062 0.043641232 0.035993624 -0.003061166
-0.07954596 0.12526743 0.026769832 -0.21927504 -0.07502744 -0.109132625 -0.060092304 0.0035333997
-0.06814861 -0.14499016 -0.075997025 -0.071136095 -0.013926119 -0.060241424 -0.021514505 -0.0489881
0.03368315 0.06842029 -0.023466552 -0.1674944 0.010143346 -0.18238091 -0.037800476 0.037604474
0.03592911 -0.014393669 0.016845932 -0.034502428 0.005924068 0.040784623 0.046591036 -0.028059537
-0.008008936 -0.18006901 -0.004699253 -0.25366053 0.0041336 0.13961665 -0.064864196 -0.024683822
-0.04420905 -0.13366514 -0.030052047 -0.015005637 0.024459502 0.097936615 -0.18984307 0.11987843
-0.025104132 -0.019086683 0.012838601 -0.092314765 -0.014939734 0.05662775 0.13335644 -0.05443483
-0.20251545 0.055804692 -0.043019637 0.014813317 -0.012728301 -0.08747339 -0.053622596 -0.086729795
-0.0046615866 0.06285767 0.03531085 -0.14716026 0.055909716 -0.005967763 0.02234126 -0.0144232
0.03551517 0.03379205 0.0008873536 -0.05172383 -0.033307694 -0.027546553 -0.013152111 0.0184732
0.075001575 0.05913926 -0.0618543 -0.08160287 0.016933462 0.03406501 -0.01961192 -0.0037537517
0.036419988 -0.06741999 0.03285562 -0.0314031 -0.05778185 0.046632305 -0.0033252472 -0.04139706
0.017257422 0.1825215 0.00048130716 0.24972543 0.02014848 -0.12947863 0.08706079 -0.0023634115
0.042890944 0.14017811 0.037932288 0.017299728 -0.029499143 -0.0715327 0.18694894 -0.11849782
0.018625502 -0.002249821 -0.025086278 0.11602518 -0.003960418 -0.039377235 -0.12838636 0.05325576
0.20276874 -0.06628999 0.03777653 -0.0035441024 0.02360529 0.09199971 0.06398908 0.09381842
-0.023963174 0.06603305 0.030867001 -0.14612179 0.03827807 0.012582255 0.013441208 0.010834057
0.028085578 0.0057054716 0.0066367304 -0.0579995 -0.035939265 -0.032231957 -0.009015499 0.033492483
0.023806978 0.058434866 -0.04464157 -0.09074095 0.017800475 -0.02945223 -0.0519075 -0.015193178
0.03402672 -0.07173732 0.034243666 -0.022041803 -0.045160003 0.057547443 0.0124488175 -0.051844727
0.08332327 0.02094744 -0.033789437 0.1095943 0.034801822 -0.08793128 -0.028869115 0.031935122
-0.030719854 -0.022003256 -0.030982558 0.05771545 0.040370937 0.030602451 -0.0033732662 -0.06512606
0.09612799 -0.047771495 0.02530191 0.03822247 -0.01158635 0.068538085 0.054188553 -0.03887123
0.051751003 0.05134312 -0.065644234 0.042691838 0.00080654304 -0.07470913 -0.024754474 -0.0046233484
0.02360231 -0.06378614 -0.05011381 0.15220958 -0.022764973 -0.028658044 -0.015774665 -0.017234396
-0.012932054 -0.019854987 0.010927559 0.05736364 0.027411692 0.02729249 0.022017099 -0.01699374
-0.033752047 -0.04418202 0.06187114 0.08861994 -0.019139532 -0.008173045 0.03594655 -0.028318804
-0.018507207 0.06175465 -0.055022083 0.05036308 0.047016244 -0.038703818 -0.013114049 0.04489336
00000000: 9d1d 21bd 1e9a 7e3b d344 4b3d e652 a3bd
00000010: 8d05 2d3c fe29 d23d 376d 8f3d 9cae 51bc
00000020: 2b2f 613d 72f9 df3d 3d0b 113d 20f2 94bd
00000030: 69f9 06bd 3dbb 16bc 171b 06bc 26df 663d
00000040: 8c92 8bbd c584 f83c 61e0 43bd 6ee2 1abd
00000050: cb3a 8c3c 4dc6 993c 82cd 2ebd e79f 783d
00000060: b5d0 59bc 1a0e 72bd 9de9 9d3d c581 76bd
00000070: cb76 453b 26c1 323d 0d6e 133d d89d 48bb
00000080: fee8 a2bd 1b46 003e 684c db3c a389 60be
00000090: fda7 99bd ed80 dfbd 5923 76bd 9c90 673b
000000a0: 8091 8bbd 4d78 14be 54a4 9bbd cdaf 91bd
000000b0: 602a 64bc b6bf 76bd 303f b0bc bfa7 48bd
000000c0: 58f7 093d f01f 8c3d ed3c c0bc a783 2bbe
000000d0: 4730 263c 10c2 3abe acd4 1abd 2607 1a3d
000000e0: 672a 133d 6cd3 6bbc 7b00 8a3c 6b52 0dbd
000000f0: af1e c23b c70d 273d 3ed6 3e3d 1ddd e5bc
00000100: ea37 03bc 0364 38be 31fc 99bb cbdf 81be
00000110: 2673 873b abf7 0e3e 85d7 84bd ba35 cabc
00000120: 8c14 35bd 84df 08be b62f f6bc 34da 75bc
00000130: 4b5f c83c fe92 c83d 3966 42be d382 f53d
00000140: 2ea7 cdbc ad5b 9cbc ff58 523c 860f bdbd
00000150: c9c5 74bc 80f2 673d 978e 083e 0ef7 5ebd
00000160: 3660 4fbe 7693 643d 5c35 30bd 8eb3 723c
00000170: 5d8a 50bc 4025 b3bd 5ea3 5bbd 649f b1bd
00000180: 39c0 98bb 86bb 803d 1ca2 103d 2eb1 16be
00000190: 9601 653d 398d c3bb 0505 b73c 494f 6cbc
000001a0: 5b78 113d 8869 0a3d 4b9d 683a 5edc 53bd
000001b0: a66d 08bd 4fa9 e1bc f47b 57bc 1c55 973c
000001c0: 6d9a 993d 023c 723d ef5a 7dbd 681f a7bd
000001d0: 0bb8 8a3c c087 0b3d 2da9 a0bc 8101 76bb
000001e0: 202d 153d 7e13 8abd 9d93 063d 89a0 00bd
000001f0: a9ac 6cbd 8401 3f3d 64ec 59bb f78f 29bd
00000200: 705f 8d3c ebe6 3a3e f457 fc39 06b8 7f3e
00000210: 6d0e a53c 0c96 04be ed4c b23d 77e3 1abb
00000220: 6aae 2f3d da8a 0f3e e35e 1b3d 29b8 8d3c
00000230: 30a8 f1bc bc7f 92bd 8b6f 3f3e fcae f2bd
00000240: 8294 983c bc71 13bb bd81 cdbc 9c9e ed3d
00000250: 65c6 81bb 064a 21bd b777 03be b622 5a3d
00000260: 9ca2 4f3e 0cc3 87bd 90bb 1a3d 2c44 68bb
00000270: e25f c13c 586a bc3d b50c 833d df23 c03d
00000280: 6b4e c4bc 563c 873d cbdc fc3c f3a0 15be
00000290: 77c9 1c3d cd25 4e3c 8338 5c3c 5481 313c
000002a0: ba13 e63c f7f4 ba3b ee78 d93b e290 6dbd
000002b0: 0d35 13bd a805 04bd beb5 13bc 6a2f 093d
000002c0: da06 c33c 6659 6f3d 14da 36bd 64d6 b9bd
000002d0: 4dd2 913c ce45 f1bc f59c 54bd cfec 78bc
000002e0: 9a5f 0b3d 04eb 92bd 1643 0c3d 0391 b4bc
000002f0: b2f9 38bd deb6 6b3d 20f6 4b3c 235b 54bd
00000300: 64a5 aa3d f799 ab3c cb66 0abd fa72 e03d
00000310: 5b8c 0e3d 5115 b4bd ec7e ecbc 67ce 023d
00000320: 34a8 fbbc 2c40 b4bc 22cf fdbc 0967 6c3d
00000330: ff5b 253d feb1 fa3c 0412 5dbb d060 85bd
00000340: c0de c43d 0bac 43bd f345 cf3c 2a8f 1c3d
00000350: add4 3dbc b25d 8c3d d1f4 5d3d 7037 1fbd
00000360: dcf8 533d 2a4d 523d 7c70 86bd a3dd 2e3d
00000370: 306e 533a 1a01 99bd e5c9 cabc 757f 97bb
00000380: a259 c13c 4fa2 82bd 2344 4dbd d4dc 1b3e
00000390: 9c7d babc 46c4 eabc df39 81bc 262f 8dbc
000003a0: f7e0 53bc eda6 a2bc 8109 333c 23f6 6a3d
000003b0: 7c8e e03c 8094 df3c 345d b43c 7536 8bbc
000003c0: 963f 0abd 35f8 34bd 986c 7d3d 5f7e b53d
000003d0: 82ca 9cbc 3ce8 05bc b13c 133d d6fc e7bc
000003e0: 6d9c 97bc 72f2 7c3d d65e 61bd 8449 4e3d
000003f0: 1b94 403d e587 1ebd 4fdc 56bc 1ae2 373d

context_transformer_0/ffn_layer_0/intermediate_dense/einsum/Einsum;context_transformer_0/ffn_layer_0/intermediate_dense/Relu;context_transformer_0/ffn_layer_0/intermediate_dense/add f4 [32]
0.08806172 -0.14360733 -0.13443957 -0.26781973 -0.107085794 -0.31339556 -0.4447402 -0.0902969
-0.36275154 0.025403302 -0.13950428 -0.31805953 -0.10512372 -0.19169481 -0.32630736 -0.21794985
-0.15361951 -0.18883933 -0.26995978 -0.32209328 -0.32152462 -0.13423373 -0.119000286 -0.15865856
-0.14656882 -0.37723652 -0.13413748 0.00014475168 -0.24871095 -0.27225834 -0.22161642 -0.32428256
00000000: b459 b43d cd0d 13be 87aa 09be ab1f 89be
00000010: cc4f dbbd 6275 a0be fdb4 e3be 95ed b8bd
00000020: 92ba b9be 961a d03c 36da 0ebe b3d8 a2be
00000030: 1b4b d7bd a54b 44be c211 a7be 3f2e 5fbe
00000040: 6f4e 1dbe 195f 41be 2b38 8abe 69e9 a4be
00000050: e09e a4be 9174 09be 6cb6 f3bd 6477 22be
00000060: 2316 16be 2525 c1be 565b 09be 7cc8 1739
00000070: 15ae 7ebe 7265 8bbe 6aef 62be 5d08 a6be

context_transformer_0/attention/norm/mul;context_transformer_0/attention/norm/add;context_transformer_0/ffn_layer_0/intermediate_dense/einsum/Einsum;context_transformer_0/ffn_layer_0/intermediate_dense/Relu;context_transformer_0/ffn_layer_0/intermediate_dense/add f4 [32, 32]
-0.013708341 0.1783066 -0.026717834 0.08097839 0.0684983 -0.023899922 -0.37715685 -0.203544
-0.17568575 -0.57892734 0.09418694 -0.2624507 0.08024634 -0.031879604 0.21841298 0.20986132
0.4857779 0.2403789 0.0930435 -0.049133413 -0.14299697 0.03582307 0.24939443 -0.10088018
0.4009826 0.28174645 0.08647445 -0.21950974 0.15734267 -0.037830085 -0.0080885235 -0.12473374
0.018471107 -0.0026124713 -0.22654305 0.28073356 0.19893353 0.30097225 0.037066747 -0.4329912
0.07838343 -0.25643006 -0.2581095 -0.17347589 -0.20985615 -0.033258162 -0.17379855 -0.0041100946
-0.0022289238 -0.062565714 -0.008754095 -0.1220074 -0.13383523 0.07935857 -0.083821915 0.13680005
-0.023807215 0.021952443 -0.46942627 -0.14775555 -0.40221736 -0.014862453 -0.17884322 -0.04419917
-0.12000171 -0.08766494 -0.2720218 0.47246504 -0.03125023 0.10078499 0.046798054 -0.15332897
0.08531664 -0.07673782 0.08460601 0.26243395 0.12768467 0.0031283037 0.16889326 0.045022994
0.086025156 0.0649603 -0.11362562 -0.25573462 -0.09044806 -0.07339362 -0.091318674 -0.49291652
0.12958564 0.032059766 -0.10413421 0.031166177 0.15772784 0.07928392 0.06198026 -0.08169217
0.16029523 0.22279775 -0.18116993 0.4189445 -0.12795225 -0.12222926 -0.0827925 0.26525494
0.04068263 -0.25581768 0.3901152 0.27050737 -0.1845816 -0.15821576 0.2886302 -0.39177555
0.20509765 -0.0038707608 0.050066546 -0.04555723 -0.20349585 -0.012576846 -0.06899164 0.043254703
0.14457993 0.048046622 -0.18124579 0.105428405 -0.1478771 0.1551863 0.27957255 0.0985947
-0.21041739 0.22072119 0.07368253 0.2940114 -0.09617852 0.12796435 0.010013472 -0.2895614
0.024810484 -0.30285555 0.18486133 0.3438425 -0.03325119 -0.07600428 -0.028611338 -0.104549564
-0.016930565 0.002340206 -0.14145729 -0.13910203 0.6201131 0.057116497 -0.033226706 0.52147275
0.063557565 0.090631396 0.06457405 -0.2086536 -0.048915662 0.08562722 -0.29041687 0.3288147
-0.06277301 0.32469764 -0.17192234 0.38267496 0.25177875 -0.19934255 -0.43668622 0.16709326
-0.16405393 0.04016378 0.2490292 0.22541861 0.049398918 0.09106885 0.20591459 0.3848855
-0.23747256 0.0129205445 0.14318785 0.11031242 0.26793882 -0.16694331 0.2029741 0.06584092
-0.12953335 0.41551954 -0.24074923 0.023243723 -0.13339497 0.011461233 -0.3828727 0.05902672
0.2727744 -0.06966922 0.068070374 0.31753275 0.17259578 0.26916897 -0.030118022 -0.03284959
-0.2600198 -0.16345273 0.45937768 -0.44620886 -0.076858036 -0.18540838 0.11931246 -0.2516993
-0.25459352 0.2912024 -0.16797641 0.12701675 0.27891377 -0.14853352 0.087596536 -0.08220562
-0.10714896 0.08380024 0.22698976 0.06399029 -0.03103778 -0.0845678 -0.03536715 -0.23150486
-0.010719858 0.20923679 0.10162292 -0.10728505 -0.26350605 -0.0070265573 0.2600207 0.027811099
0.19740616 0.0069176634 -0.07651805 -0.14137632 0.06854177 0.21573696 0.0672742 0.06853663
-0.081084855 0.12995374 0.24122189 -0.29902202 0.0098696835 0.17332493 -0.18043442 0.33592585
0.08794687 0.12985095 0.13349962 0.12142946 0.26325062 -0.0696381 0.18164553 0.054991722
00000000: f398 60bc 0196 363e 5cdf dabc 00d8 a53d
00000010: d648 8c3d c5c9 c3bc b41a c1be d76d 50be
00000020: f7e6 33be 9534 14bf 15e5 c03d f05f 86be
00000030: 3158 a43d 3094 02bd a7a7 5f3e e3e5 563e
00000040: e2b7 f83e e325 763e 978d be3d 1e40 49bd
00000050: cc6d 12be 36bb 123d 4161 7f3e 459a cebd
00000060: 974d cd3e 1241 903e 8419 b13d 29c7 60be
00000070: 701e 213e b8f3 1abd ba85 04bc 6774 ffbd
00000080: b850 973c ff35 2bbb e7fa 67be 4fbc 8f3e
00000090: 3bb5 4b3e 0919 9a3e 4dd3 173d 06b1 ddbe
000000a0: 7e87 a03d cd4a 83be ee26 84be aaa3 31be
000000b0: 88e4 56be b639 08bd 3ff8 31be f9ad 86bb
000000c0: 2313 12bb 7422 80bd 566d 0fbc 04df f9bd
000000d0: 1a0c 09be bf86 a23d d3aa abbd 5015 0c3e
000000e0: 5907 c3bc 9cd5 b33c a458 f0be 3b4d 17be
000000f0: 6fef cdbe a581 73bc ad22 37be 300a 35bd
00000100: 75c3 f5bd ad89 b3bd 7146 8bbe f0e6 f13e
00000110: 3e00 00bd 5c68 ce3d 51af 3f3d 4502 1dbe
00000120: 7eba ae3d b828 9dbd ea45 ad3d be5d 863e
00000130: c5bf 023e 3a04 4d3b 5bf2 2c3e 086a 383d
00000140: f52d b03d e809 853d 8db4 e8bd a6ef 82be
00000150: d53c b9bd 654f 96bd 4905 bbbd 8e5f fcbe
00000160: 19b2 043e 1a51 033d 5144 d5bd 3650 ff3c
00000170: 6883 213e 9c5f a23d 03df 7d3d 394e a7bd
00000180: 6f24 243e 1825 643e 9c84 39be e57f d63e
00000190: ea05 03be 5653 fabd 1d8f a9bd 7fcf 873e
000001a0: d4a2 263d 89fa 82be 2ebd c73e f17f 8a3e
000001b0: f502 3dbe 5003 22be 56c7 933e ce96 c8be
000001c0: 1e05 523e 97ac 7dbb 9412 4d3d 389a 3abd
000001d0: 3761 50be 1e0f 4ebc 7d4b 8dbd d82b 313d
000001e0: c30c 143e 89cc 443d 7f98 39be d9ea d73d
000001f0: 186d 17be 28e9 1e3e 2224 8f3e 05ec c93d
00000200: a877 57be bc04 623e dee6 963d aa88 963e
00000210: 3ef9 c4bd 1609 033e 8c0f 243c 6441 94be
00000220: 5b3f cb3c e20f 9bbe 4a4c 3d3e 200c b03e
00000230: 6632 08bd 22a8 9bbd 5362 eabc 151e d6bd
00000240: f8b1 8abc 245e 193b 2eda 10be c370 0ebe
00000250: bbbf 1e3f fdf2 693d ba18 08bd 3d7f 053f
00000260: 782a 823d f49c b93d 663f 843d 4aa9 55be
00000270: ca5b 48bd 535d af3d 85b1 94be 665a a83e
00000280: 238f 80bd c53e a63e 690c 30be f9ed c33e
00000290: 25e9 803e 7420 4cbe 5695 dfbe 7f1a 2b3e
000002a0: c1fd 27be c782 243d 8301 7f3e 23d4 663e
000002b0: 8556 4a3d 4e82 ba3d 46db 523e b60f c53e
000002c0: 022c 73be b1b0 533c d69f 123e 7aeb e13d
000002d0: 472f 893e 30f3 2abe 71d8 4f3e 9bd7 863d
000002e0: 64a4 04be fabe d43e f786 76be 9f69 be3c
000002f0: b198 08be e5c7 3b3c e407 c4be 00c6 713d
00000300: 16a9 8b3e bcae 8ebd 7b68 8b3d a793 a23e
00000310: f3bc 303e 84d0 893e 12ba f6bc 4b8d 06bd
00000320: 5121 85be 2760 27be 8d33 eb3e 7d75 e4be
00000330: bf67 9dbd b2db 3dbe 175a f43d bbde 80be
00000340: 155a 82be 7b18 953e 0202 2cbe ae10 023e
00000350: c9cd 8e3e 2c19 18be d065 b33d 6c5b a8bd
00000360: ea70 dbbd 769f ab3d 0170 683e 570d 833d
00000370: f142 febc e231 adbd 25dd 10bd 9c0f 6dbe
00000380: 58a2 2fbc 2b42 563e ad1f d03d 44b8 dbbd
00000390: 44ea 86be 093f e6bb 6f21 853e 1ad4 e33c
000003a0: d724 4a3e 91ad e23b 7fb5 9cbd f4c4 10be
000003b0: a15f 8c3d 26ea 5c3e 0ec7 893d ef5c 8c3d
000003c0: d10f a6bd 9812 053e df02 773e 6a19 99be
000003d0: 74b4 213c 177c 313e cdc3 38be 79fe ab3e
000003e0: 7d1d b43d a6f7 043e 20b4 083e 02b0 f83d
000003f0: c9c8 863e 6c9e 8ebd 4901 3a3e 003f 613d

context_transformer_0/ffn_layer_1/intermediate_dense/einsum/Einsum;context_transformer_0/ffn_layer_1/intermediate_dense/Relu;context_transformer_0/ffn_layer_1/intermediate_dense/add f4 [32]
-0.12600577 -0.17944437 -0.16217041 -0.048099946 -0.3173781 -0.2327369 -0.272796 -0.29181075
-0.11487698 -0.092887126 -0.15881301 -0.05027389 -0.16312708 -0.3750606 -0.25899622 -0.12025382
-0.095461935 -0.34332502 -0.36355087 -0.30421937 -0.17925459 -0.15041333 -0.029702947 -0.18977176
-0.17515743 -0.14811248 -0.068822615 -0.093315445 -0.14161289 -0.025476594 -0.22323349 0.16769423
00000000: a807 01be 44c0 37be 0010 26be 7304 45bd
00000010: 627f a2be 9552 6ebe ebab 8bbe 3868 95be
00000020: 9f44 ebbd 9b3b bebd e19f 22be ffeb 4dbd
00000030: c90a 27be f107 c0be 279b 84be a347 f6bd
00000040: 8c81 c3bd 4cc8 afbe 5723 babe a4c2 9bbe
00000050: 848e 37be f405 1abe 9853 f3bc 8753 42be
00000060: 785c 33be ccaa 17be dff2 8cbd 2b1c bfbd
00000070: f802 11be 4ab4 d0bc 5297 64be 09b8 2b3e

context_transformer_0/ffn_layer_0/norm/mul;context_transformer_0/ffn_layer_0/norm/add;context_transformer_0/ffn_layer_1/intermediate_dense/einsum/Einsum;context_transformer_0/ffn_layer_1/intermediate_dense/Relu;context_transformer_0/ffn_layer_1/intermediate_dense/add f4 [32, 32]
-0.11890608 -0.039555207 -0.032937102 -0.067158885 -0.1468533 0.16852069 -0.09374605 0.3042324
0.1689041 0.44647464 0.28196308 -0.22194709 -0.19664986 0.0035571975 0.0096775815 -0.4187097
0.062252793 -0.06256268 -0.45199925 -0.16228749 0.14178464 -0.09658922 0.15044756 0.06590825
-0.19197679 0.029779935 -0.20239522 -0.011301036 -0.19810936 -0.46258277 0.11246598 0.049419604
0.13577102 0.21998328 0.08577812 -0.19417636 -0.21007654 -0.009867894 0.15947287 0.33398342
0.15702344 0.11976321 -0.027192617 0.100073524 0.24597389 -0.23020904 0.04803425 -0.13482939
0.02156152 0.17826536 0.008131561 0.14312239 -0.06889688 0.16541488 0.33156684 0.21210423
0.089997865 0.06492415 0.40148535 0.25752357 0.3455937 0.26664835 -0.03302059 -0.10512093
-0.0046840175 0.1417156 0.09482627 0.055563368 0.051245574 0.08751064 -0.15087768 -0.12348213
0.056243878 -0.23724282 0.4274977 0.0047528218 -0.16016614 -0.031788643 0.19591717 -0.24918415
0.08105043 -0.081507295 -0.27104786 -0.21711622 0.29066208 0.11037582 -0.15561648 0.07346165
0.08793064 0.07955884 0.14081965 -0.04871847 0.2954178 -0.34315008 -0.34105784 -0.15003666
0.28449824 0.10767579 0.076596044 -0.16617496 -0.05093797 0.20436278 -0.17043811 -0.033651046
-0.19484034 -0.2571536 -0.1454877 0.011558353 -0.24298587 -0.2598592 -0.048806407 0.007936291
0.3501108 -0.038126115 -0.12039838 -0.14096434 0.033082638 -0.011489535 -0.001232897 -0.16444539
0.17342646 0.06864479 0.30540863 -0.23335275 0.062376704 -0.12662102 -0.10413309 0.011752288
0.40750003 0.024148896 0.25257313 -0.0852859 0.10096592 0.15298013 0.0073695537 0.12511574
0.2609122 -0.13117978 -0.086963415 -0.14157414 -0.091890536 -0.062943436 -0.14258067 -0.1490202
0.11129901 0.041950222 0.027341576 -0.022135798 -0.15656729 -0.4071434 0.23028949 0.036848772
0.017307676 0.07414232 -0.046184342 0.18538265 -0.04073186 -0.13607691 0.24699003 -0.096129514
-0.122538805 -0.2589008 -0.06972796 -0.0122424355 0.27315813 -0.109652855 -0.5387743 -0.34059146
-0.15027377 -0.12396198 0.110723376 -0.18795349 -0.08097916 -0.18066218 0.033960786 -0.15619852
-0.2695742 0.102054365 -0.09193935 0.072289556 0.3046444 0.21442513 0.029894006 -0.2025406
0.057039406 -0.10221643 -0.033911653 -0.11311991 -0.061262164 -0.15304902 -0.014253251 -0.27201295
-0.08893774 0.04555153 0.18954295 -0.1815503 -0.41448003 -0.032807533 -0.11363819 0.2543795
-0.1026564 0.14231545 0.08908123 -0.013261669 0.05069957 -0.28806856 -0.0019478885 0.073970586
-0.20400435 -0.12316645 -0.35608232 0.25917044 -0.25693613 -0.2936234 0.26915506 0.108018026
-0.18106715 -0.041115336 0.21993576 -0.004358685 0.18375196 -0.27738616 -0.0039598397 -0.13404042
0.09728004 0.28021696 0.21268608 -0.14879234 -0.19027576 -0.057000294 -0.2121385 0.3151621
0.031303827 -0.3642241 0.2083008 0.19637597 0.037516214 0.10304488 0.15307538 0.16362962
0.4426275 -0.0548325 -0.1584141 0.24534492 -0.041737694 -0.26869327 -0.24476533 -0.24441153
-0.0031591172 0.17927738 0.2582722 0.11021052 -0.06483283 -0.24969217 0.2581774 0.014011016
00000000: 0885 f3bd a404 22bd 0ee9 06bd 998a 89bd
00000010: b660 16be b090 2c3e eefd bfbd 59c4 9b3e
00000020: 32f5 2c3e 5398 e43e 775d 903e 1946 63be
00000030: 955e 49be df1f 693b b88e 1e3c 1e61 d6be
00000040: c9fc 7e3d dd20 80bd 726c e7be b12e 26be
00000050: fe2f 113e 92d0 c5bd ed0e 1a3e e8fa 863d
00000060: 9095 44be 0df5 f33c b140 4fbe fb27 39bc
00000070: 2edd 4abe a6d7 ecbe 9054 e63d 366c 4a3d
00000080: 8f07 0b3e 4c43 613e 70ac af3d 2bd6 46be
00000090: 4e1e 57be f3ac 21bc db4c 233e e0ff aa3e
000000a0: c1ca 203e 6a46 f53d 0dc3 debc 59f3 cc3d
000000b0: 94e0 7b3e ebbb 6bbe 90bf 443d b710 0abe
000000c0: c9a1 b03c 328b 363e 3d3a 053c ad8e 123e
000000d0: cf19 8dbd 8562 293e 21c3 a93e da31 593e
000000e0: cd50 b83d f4f6 843d 7d8f cd3e 21da 833e
000000f0: a8f1 b03e 2286 883e 9940 07bd a449 d7bd
00000100: 637c 99bb e51d 113e 4734 c23d 6a96 633d
00000110: e1e6 513d c738 b33d ae7f 1abe 33e4 fcbd
00000120: fb5f 663d c8ef 72be fbe0 da3e 8fbd 9b3b
00000130: 9802 24be cf34 02bd 839e 483e 212a 7fbe
00000140: c5fd a53d 4ced a6bd c9c6 8abe b753 5ebe
00000150: a9d1 943e b80c e23d ed59 1fbe 1073 963d
00000160: fb14 b43d bfef a23d 0733 103e 058d 47bd
00000170: 0041 973e 5eb1 afbe 229f aebe 36a3 19be
00000180: c1a9 913e 2085 dc3d 63de 9c3d c529 2abe
00000190: 55a4 50bd 7a44 513e 5487 2ebe aed5 09bd
000001a0: 3a84 47be a3a9 83be bafa 14be 3f5f 3d3c
000001b0: 4ad1 78be 440c 85be 3ae9 47bd 3807 023c
000001c0: b941 b33e 212a 1cbd 6d93 f6bd f558 10be
000001d0: a981 073d 9a3e 3cbc 2999 a1ba 5f64 28be
000001e0: b596 313e a495 8c3d 855e 9c3e 06f4 6ebe
000001f0: b77e 7f3d f1a8 01be bb43 d5bd ab8c 403c
00000200: d8a3 d03e e8d3 c53c 4451 813e 60aa aebd
00000210: 38c7 ce3d d3a6 1c3e 4c7c f13b 571e 003e
00000220: 4996 853e fe53 06be e019 b2bd d0f8 10be
00000230: 1b31 bcbd 7de8 80bd ab00 12be c098 18be
00000240: bcf0 e33d ffd3 2b3d 71fb df3c 2256 b5bc
00000250: 2d53 20be 1a75 d0be 02d1 6b3e bdee 163d
00000260: d4c8 8d3c eed7 973d cb2b 3dbd f3d4 3d3e
00000270: 73d6 26bd bf57 0bbe f4ea 7c3e 8ddf c4bd
00000280: a0f5 fabd a58e 84be 88cd 8ebd 7f94 48bc
00000290: 62db 8b3e ad91 e0bd 1ded 09bf 0162 aebe
000002a0: 5ee1 19be c7df fdbd f0c2 e23d e176 40be
000002b0: 67d8 a5bd 82ff 38be 771a 0b3d 81f2 1fbe
000002c0: a105 8abe e101 d13d b34a bcbd 8c0c 943d
000002d0: 5afa 9b3e 4392 5b3e 46e4 f43c ce66 4fbe
000002e0: 27a2 693d d956 d1bd f2e6 0abd 69ab e7bd
000002f0: 09ee 7abd e2b8 1cbe 7886 69bc 4845 8bbe
00000300: fd24 b6bd 3e94 3a3d 8c17 423e 52e8 39be
00000310: ba36 d4be 3161 06bd 24bb e8bd 083e 823e
00000320: 853d d2bd 24bb 113e 3870 b63d 7947 59bc
00000330: 5aaa 4f3d b97d 93be 4b50 ffba e47d 973d
00000340: 84e6 50be b13e fcbd 6c50 b6be fdb1 843e
00000350: 228d 83be ce55 96be b1ce 893e 8e38 dd3d
00000360: ab69 39be 8e68 28bd d736 613e 4dd3 8ebb
00000370: 7929 3c3e 8f05 8ebe 8bc1 81bb e441 09be
00000380: c23a c73d 9978 8f3e 61ca 593e 055d 18be
00000390: a6d7 42be 2479 69bd d63a 59be ed5c a13e
000003a0: 7138 003d 957b babe ce4c 553e c816 493e
000003b0: 9aaa 193d 3209 d33d cbbf 1c3e 868e 273e
000003c0: 12a0 e23e 0b98 60bd 4e37 22be b33b 7b3e
000003d0: 25f5 2abd 2a92 89be c3a3 7abe 0447 7abe
000003e0: 3109 4fbb 7d94 373e 413c 843e 0eb6 e13d
000003f0: 13c7 84bd 4eaf 7fbe d42f 843e 768e 653c

context_transformer_0/ffn_layer_2/intermediate_dense/einsum/Einsum;context_transformer_0/ffn_layer_2/intermediate_dense/Relu;context_transformer_0/ffn_layer_2/intermediate_dense/add f4 [32]
0.100852594 -0.26616257 -0.35830888 -0.3363598 -0.04122876 -0.28395948 -0.02186525 -0.14808695
-0.3242613 -0.35897756 -0.15284172 0.033960614 -0.24231154 -0.26031682 -0.2541303 -0.28510565
-0.19968343 -0.17556094 -0.07124759 -0.108225286 -0.09378523 -0.2225186 -0.102778874 -0.43405336
-0.2147556 -0.09435936 -0.10952984 -0.38142985 -0.22610222 -0.0143840425 -0.19860126 -0.10050691
00000000: ce8b ce3d 7646 88be 4374 b7be 5a37 acbe
00000010: 7ddf 28bd 2363 91be c11e b3bc 1ba4 17be
00000020: 9405 a6be e8cb b7be 8a82 1cbe 491a 0b3d
00000030: 8420 78be 3f48 85be 5e1d 82be 5ef9 91be
00000040: d079 4cbe 3fc6 33be 42ea 91bd 38a5 ddbd
00000050: 7812 c0bd eadb 63be bb7d d2bd 3e3c debe
00000060: e4e8 5bbe 7b3f c1bd 2e51 e0bd c64a c3be
00000070: 5787 67be 0cab 6bbc 215e 4bbe 91d6 cdbd

context_transformer_0/ffn_layer_1/norm/mul;context_transformer_0/ffn_layer_1/norm/add;context_transformer_0/ffn_layer_2/intermediate_dense/einsum/Einsum;context_transformer_0/ffn_layer_2/intermediate_dense/Relu;context_transformer_0/ffn_layer_2/intermediate_dense/add f4 [32, 32]
0.16741988 0.16162851 -0.03394488 0.13177979 0.115366705 -0.36719587 -0.06111752 -0.11330473
0.025660863 -0.1661189 0.025672004 0.2774585 -0.18363264 -0.17389709 -0.09630787 -0.24812244
0.11247174 0.18808255 -0.21658091 0.08911546 0.14506233 0.11978255 -0.07323065 -0.08760024
0.2384013 -0.030668134 0.23906043 0.0907121 0.18477093 -0.22855502 -0.23438294 -0.060602814
0.1395748 -0.32791096 0.057603687 -0.14927433 -0.08163374 0.4950055 0.09113546 -0.044287294
0.27280727 -0.033365887 0.07050726 -0.06361589 -0.10993383 0.031558275 0.06475714 0.016585084
0.14005257 0.006031948 0.003672171 0.0020805951 0.0653297 0.22585595 -0.143784 0.23909473
-0.25833625 0.07133554 0.083955154 0.14966387 0.22748388 -0.20621026 0.0066975886 -0.2693911
0.12764739 -0.40885568 0.028236056 -0.2589772 0.09216504 0.21332671 -0.110124 -0.21532504
0.055166434 -0.16385297 0.113561615 0.046204083 -0.040631037 0.11082913 -0.0046078935 0.111571476
0.1316462 0.32106784 -0.20135783 -0.24961571 0.16466713 -0.21545106 -0.13780126 0.19627325
-0.13714045 0.07562793 0.2219556 -0.08854024 0.110015415 -0.054224696 0.16648275 -0.21301638
-0.2017693 0.06264005 0.12697318 0.21295595 -0.21345505 0.004322915 -0.26919466 -0.028410966
-0.058536008 0.13144855 0.30693915 0.06987055 -0.3073531 -0.195199 0.099036746 0.010564142
-0.28636718 0.044953085 -0.003093404 -0.3005397 -0.110573255 0.122650705 -0.0064792456 -0.03084756
-0.15296683 0.026340004 -0.343441 -0.1613901 -0.07915751 0.12577057 -0.12230441 0.0851795
0.33775818 0.34085736 -0.059305035 0.022704266 -0.17316902 0.16559967 -0.03656622 0.22839446
-0.18648526 0.12998873 -0.044838466 0.13714471 -0.23113291 0.0635024 0.067418605 -0.25268236
0.17632203 -0.09055556 0.16807145 0.13361903 -0.22464019 -0.017038625 -0.17786269 0.0069505936
-0.20738262 0.13891517 -0.18043606 0.057907928 -0.07470259 0.14672987 0.18551452 -0.21461111
-0.18973619 0.029114189 -0.18547359 0.41293755 0.03903941 0.032426037 0.046693627 0.08420343
-0.21491325 -0.24533811 0.2687921 -0.20265819 0.06363223 -0.013501471 -0.059906244 0.0020714353
-0.16417764 0.07686538 -0.08596075 0.06931548 0.15064034 0.27852556 -0.08151328 -0.24498217
-0.008941565 0.045051042 -0.0121090235 -0.060219515 0.06235348 0.054736715 -0.11640773 -0.097481966
0.15113789 0.33825174 0.13692111 0.1109292 -0.14126626 0.19192052 0.111251056 0.042228755
0.115849204 0.13231765 -0.21045648 0.006146297 -0.36459163 0.032649774 -0.024979929 0.20674682
0.11910877 0.05626848 0.009757232 0.08603801 0.120113984 -0.102181464 -0.061243746 0.15662812
0.026944516 -0.022697441 0.086061046 0.1383101 0.036124375 -0.25155422 0.0068434 0.12319808
0.21120456 0.117397144 -0.08710274 -0.16957247 -0.06329593 0.055117175 0.00327045 0.30512342
0.03909918 0.18916243 0.19477999 -0.06859889 0.26470193 0.012960197 0.05078578 -0.13964881
-0.07019613 0.19659686 0.15423723 -0.0766178 0.025887037 -0.14569993 0.069399 0.06339785
-0.062731035 0.13845997 0.41110495 0.08257358 -0.13807753 0.03312028 0.23103008 0.14204898
00000000: 1e70 2b3e f281 253e c909 0bbd 48f1 063e
00000010: 6145 ec3d 1901 bcbe 5d56 7abd 4f0c e8bd
00000020: bb36 d23c 131b 2abe 184e d23c 0a0f 8e3e
00000030: 320a 3cbe 1412 32be 0f3d c5bd cf13 7ebe
00000040: 9557 e63d b698 403e 63c7 5dbe 2b82 b63d
00000050: 388b 143e 8e50 f53d f3f9 95bd c167 b3bd
00000060: 781f 743e bd3b fbbc 42cc 743e 44c7 b93d
00000070: 9734 3d3e 540a 6abe 1502 70be a83a 78bd
00000080: b2ec 0e3e f2e3 a7be d8f1 6b3d 5fdb 18be
00000090: 972f a7bd 5c71 fd3e 3aa5 ba3d 9866 35bd
000000a0: 65ad 8b3e abaa 08bd 1c66 903d 0c49 82bd
000000b0: fd24 e1bd 4043 013d 649f 843d 71dd 873c
000000c0: f169 0f3e a6a7 c53b cea8 703b 985a 083b
000000d0: 94cb 853d c846 673e 1d3c 13be 40d5 743e
000000e0: a644 84be 5e18 923d aef0 ab3d 7c41 193e
000000f0: 89f1 683e c828 53be 7277 db3b a1ed 89be
00000100: ffb5 023e 8855 d1be 4d4f e73c a998 84be
00000110: 06c1 bc3d 5172 5a3e b188 e1bd 2b7e 5cbe
00000120: 33f6 613d 13c9 27be fe92 e83d 7e40 3d3d
00000130: bb6c 26bd 62fa e23d d0fd 96bb 967f e43d
00000140: 43ce 063e 0163 a43e bf30 4ebe 439b 7fbe
00000150: 809e 283e 349f 5cbe c61b 0dbe dbfb 483e
00000160: 8c6e 0cbe d1e2 9a3d 5448 633e 9654 b5bd
00000170: c34f e13d b71a 5ebd 747a 2a3e f720 5abe
00000180: 9d9c 4ebe 6d49 803d 4205 023e 2011 5a3e
00000190: f693 5abe 3da7 8d3b e2d3 89be 1dbe e8bc
000001a0: 74c3 6fbd 739a 063e 2127 9d3e 4a18 8f3d
000001b0: 635d 9dbe 3fe2 47be c7d3 ca3d 3915 2d3c
000001c0: b89e 92be ba20 383d b5ba 4abb 57e0 99be
000001d0: 3b74 e2bd 4b30 fb3d da4f d4bb 06b4 fcbc
000001e0: 56a3 1cbe fec6 d73c 80d7 afbe 7243 25be
000001f0: 551d a2bd 00ca 003e bc7a fabd 9772 ae3d
00000200: a4ee ac3e db84 ae3e d6e9 72bd 4cfe b93c
00000210: 3853 31be f692 293e 76c6 15bd 3de0 693e
00000220: fef5 3ebe c41b 053e 8aa8 37bd aa6f 0c3e
00000230: 1bae 6cbe 8c0d 823d c412 8a3d 955f 81be
00000240: c38d 343e 3275 b9bd ec1a 2c3e 6dd3 083e
00000250: 1408 66be 9694 8bbc a321 36be cec1 e33b
00000260: 1c5c 54be c73f 0e3e 3bc4 38be dd30 6d3d
00000270: acfd 98bd 5b40 163e 85f7 3d3e 04c3 5bbe
00000280: 344a 42be e180 ee3c caec 3dbe 8d6c d33e
00000290: cae7 1f3d 2ad1 043d d141 3f3d d972 ac3d
000002a0: 3812 5cbe ea39 7bbe 1e9f 893e a185 4fbe
000002b0: 9d51 823d 4635 5dbc 4060 75bd ebc0 073b
000002c0: 2f1e 28be 996b 9d3d 310c b0bd 46f5 8d3d
000002d0: 7641 1a3e e79a 8e3e 6ff0 a6bd 9bdc 7abe
000002e0: a47f 12bc 7187 383d ed64 46bc bda8 76bd
000002f0: 5d66 7f3d 9b33 603d 2d67 eebd a0a4 c7bd
00000300: e4c3 1a3e 552f ad3e 0c35 0c3e d92e e33d
00000310: 1aa8 10be d086 443e 98d7 e33d 0ff8 2c3d
00000320: 5942 ed3d 477e 073e e781 57be e066 c93b
00000330: c1ab babe c5bb 053d b5a2 ccbc 70b5 533e
00000340: 4cef f33d c779 663d ccdc 1f3c b234 b03d
00000350: 52fe f53d 8444 d1bd b9da 7abd 1f63 203e
00000360: bfba dc3c fcef b9bc c640 b03d 2aa1 0d3e
00000370: 27f7 133d b7cb 80be 9a3e e03b 464f fc3d
00000380: 0246 583e ea6d f03d ec62 b2bd 68a4 2dbe
00000390: 4ca1 81bd 8cc2 613d 0c55 563b 2339 9c3e
000003a0: 7626 203d ccb3 413e 6874 473e 937d 8cbd
000003b0: 0387 873e 0257 543c c004 503d 1900 0fbe
000003c0: fdc2 8fbd b050 493e 5df0 1d3e cbe9 9cbd
000003d0: 0d11 d43c 5d32 15be 1021 8e3d bbd6 813d
000003e0: 2179 80bd 73c8 0d3e 597c d23e 561c a93d
000003f0: 3264 0dbe 21a9 073d 2693 6c3e 4a75 113e

context_transformer_0/ffn_layer_3/intermediate_dense/einsum/Einsum;context_transformer_0/ffn_layer_3/intermediate_dense/Relu;context_transformer_0/ffn_layer_3/intermediate_dense/add f4 [32]
-0.0465337 -0.011133509 -0.25102693 -0.16110764 -0.07900953 -0.15935946 -0.06489053 -0.22851522
-0.16201906 -0.2043807 -0.21819952 -0.093211606 -0.08759543 0.100431204 -0.08512268 -0.12840344
-0.17513824 -0.11696325 -0.11090967 -0.20535237 -0.031966813 -0.07897572 0.024588447 -0.17065561
-0.056762986 -0.007394948 -0.13574022 -0.08365311 -0.2334166 -0.15425785 -0.122638926 -0.038631506
00000000: 1f9a 3ebd 5269 36bc 9a86 80be 67f9 24be
00000010: c0cf a1bd 202f 23be 54e5 84bd e5ff 69be
00000020: 53e8 25be 2d49 51be b26f 5fbe bae5 bebd
00000030: 3c65 b3bd e0ae cd3d cd54 aebd 317c 03be
00000040: 7057 33be 6e8a efbd 9c24 e3bd e447 52be
00000050: a2ef 02bd 06be a1bd b66d c93c 58c0 2ebe
00000060: 4e80 68bd 5251 f2bb 7cff 0abe 5252 abbd
00000070: c304 6fbe c5f5 1dbe 1e2a fbbd 123c 1ebd
