.dart_tool/chrome-device/Default/optimization_guide_prediction_model_downloads/de3932b9-561d-4211-8a2c-c32139f4cfbb/model.tflite (tflite, 67216 bytes, 5 tensors)

dnn/hiddenlayer_1/bias/part_0 f4 [64]
00000000: 5f16 873c 123a 25bd 4425 af3d 5f7c 2ebc
00000010: 9665 a33d 435c 80bd b79e e8bc 8be0 bc3c
00000020: 09a4 38bd 626c 5c3d 48dc 3bbd 31f1 98bb
00000030: 38d6 233d b3d0 79bc 233f 683d 0a8c 91bd
00000040: a2d8 43bc 5e5a 1ebd 75f9 12bd fbf4 af3c
00000050: 9b79 d13d 709f f43c ccee 5fbc 824d a83d
00000060: 5c37 8abc af00 cdbc 7137 a0bd 9421 dcbb
00000070: 0695 b03d 0f7d df3d 11d5 1dbd 4188 7fbd
00000080: 3d98 b43a 8c34 983d ccf7 58bd 822f cd3c
00000090: a37b 5bbd 883c 3c3d 1934 843d 694b 6e3d
000000a0: 5337 bf3d 4ac7 e5bb dce7 e53d cc46 cd3d
000000b0: eace 83ba 3650 afbc bfbf 613d 3ad6 353c
000000c0: f88a 0fba b0c5 0ebc 6d8b 0bbd 93d4 94bc
000000d0: f523 3c39 8a54 953d 3b4d 30bd f9de 7cbd
000000e0: 8807 943b 60dc 0dbd 2eaa 16bd a058 fbb6
000000f0: b626 39bc 5143 ea3d e9e0 87bc f01b 07bd
0.01649016 -0.040338583 0.0855203 -0.01064977 0.0797836 -0.062675975 -0.028395994 0.02305629
-0.04507831 0.0538143 -0.045864373 -0.004667424 0.039999217 -0.015247512 0.056700837 -0.071067885
-0.011953505 -0.0386604 -0.035882432 0.02147912 0.102282725 0.029861182 -0.013667773 0.082179084
-0.0168721 -0.02502474 -0.078230746 -0.00671787 0.08622174 0.10912525 -0.038533274 -0.0623858
0.0013778281 0.074318975 -0.052970693 0.025047068 -0.053584706 0.045956165 0.06455249 0.058177385
0.09336724 -0.0070122825 0.11225864 0.10023269 -0.0010056172 -0.021400552 0.055114504 0.011098439
-0.0005475725 -0.008714125 -0.034068514 -0.01816777 0.00017942472 0.07291515 -0.043042403 -0.06173608
0.0045174994 -0.034633994 -0.03678339 -7.4907e-06 -0.011300733 0.11438621 -0.016586738 -0.032985628

dnn/hiddenlayer_0/bias/part_0 f4 [128]
00000000: abb7 623d ed3a 30bd 0fd6 f5b9 b5d8 34bc
00000010: 4ad9 a63c 612a c83d 64dc d7bb 083d 0b3c
00000020: bb95 03bd ce7a e7bc 9038 0e3e 0040 7f3d
00000030: b5ce 173d f947 213d 3282 2d3d 4566 e1bd
00000040: 6dc0 86bc b48a 943b 6772 c2bc c624 53bd
00000050: 3689 a4bc 7bbb babc 2bd8 abbc ab97 9a3d
00000060: d7b3 973c 8e2a 073d 8123 50bd 3c56 a6bd
00000070: bf4a d33c 7505 adbd 1a49 b33c 6619 b53c
00000080: 4da2 8b3d 2b8c 69bc e708 043c 3f4b b5bc
00000090: b420 37be 7689 51bc f79a 34bd 6c5f 15be
000000a0: 0ab7 8cbd 3732 babd 4f50 963d ca64 0bbd
000000b0: d024 b5bc 19f5 d33c 7628 8dbc 5ca7 8cbd
000000c0: 75f4 c3bc de03 d63d 9717 cb3c 885f 6cbd
000000d0: 3191 c8bc 423f 6bbc 4352 163d 7809 08bc
000000e0: b99e 4e3d 3012 16bd 6e40 baba 10b7 9a3c
000000f0: feaf d13d b5dc b13d 2c96 043d 44e4 10bd
00000100: 4f09 2c3c 926c 27bd 56fb 33bc 4ba4 cc3d
00000110: 6521 afbd 7721 2abe 8eca 5d3d b490 22bd
00000120: c339 47bc 0ded 123d 1142 91bd ca6f 9c3c
00000130: 7948 8c3c dcab 8fba cbc0 cfbc 2ef7 da3c
00000140: eeba 7bbd 48b7 703d a16e 2bbd fee1 03be
00000150: d8f5 04bc df35 77bc b8b2 38bd 1fcb cabd
00000160: de74 873c 8be8 733c 21c9 b8bc ab96 2cbc
00000170: 508a 65bd 32f1 1c3d c352 1fbd 750f 18bd
00000180: c4c7 e3bc 0bad fd3c f059 ca3c bf9a ba3c
00000190: 10ac c3b9 0995 f3bc 9695 75ba a873 573d
000001a0: 8306 de3b ca2a fbbd a4e0 583d 2c7a 713d
000001b0: 7c8e 083c 3ec5 2cbd 976d b73b 4fd8 11bd
000001c0: edb6 563d 5af2 52bd 5fbe d23d 8dea 883c
000001d0: af4b b93d d674 183d c614 e83c 2414 8ebd
000001e0: a449 513d 536c 13bc 06d8 1e3d 30ac 51bc
000001f0: 281d 70bd 1a6f 0bbd 7fb6 c1bb 0ec6 863d
0.05535094 -0.043024946 -0.00046889528 -0.011037995 0.020367283 0.09773708 -0.006587552 0.008498438
-0.032125216 -0.0282568 0.13888764 0.062316895 0.037062366 0.03937528 0.042360492 -0.110058345
-0.016449178 0.0045331363 -0.023736192 -0.05154874 -0.020084959 -0.022794476 -0.0209771 0.075484596
0.018518372 0.032999568 -0.05081511 -0.08121917 0.025792478 -0.084483065 0.021885443 0.022106837
0.06818066 -0.01425461 0.008058763 -0.022130607 -0.17883569 -0.012789121 -0.0440931 -0.14587182
-0.068708494 -0.09091609 0.073395364 -0.034031667 -0.02211228 0.025873708 -0.017231207 -0.06867859
-0.023920277 0.10449956 0.024791522 -0.057708293 -0.024483295 -0.014358344 0.036699545 -0.008303039
0.05044434 -0.03663844 -0.0014209875 0.01888612 0.10238646 0.08684675 0.032369778 -0.03537394
0.010500266 -0.040875025 -0.010985216 0.09992274 -0.085512914 -0.16614328 0.05414825 -0.03968878
-0.012159768 0.0358706 -0.07092679 0.019096274 0.017124401 -0.0010961252 -0.025360486 0.026729193
-0.061457567 0.05876854 -0.04185355 -0.12879178 -0.008115254 -0.015088527 -0.045092314 -0.099020235
0.016535219 0.0148869855 -0.022556843 -0.010533969 -0.05604011 0.03831596 -0.038897287 -0.037124116
-0.027805217 0.030966302 0.024701089 0.022778867 -0.00037321495 -0.029734151 -0.00093682983 0.052600533
0.0067756786 -0.12264021 0.05294861 0.058954403 0.008334752 -0.042180292 0.005597781 -0.03560668
0.052420545 -0.051500656 0.10290217 0.016713405 0.090476386 0.0372208 0.028330218 -0.06937435
0.05109562 -0.0089979945 0.038780235 -0.0127974 -0.058621556 -0.0340415 -0.005911648 0.06580745

dnn/hiddenlayer_0/MatMul f4 [128, 12]
00000000: 0440 4bbe 3ddd 7cbd bd54 1abe 8220 24be
00000010: e3b9 3ebe 2814 2d3e a206 5dbe affb 60bd
00000020: 0e70 5dbd b701 0abd dd00 5d3e 5cd4 8c3d
00000030: 845c a0bb 0051 03be c33e f03d 4e8f 093d
00000040: 2013 543d 1f0d dcbd 7295 3bbc 1c54 8c3c
00000050: 32a8 3b3e 2565 28be 659c 02bc 7abc 37be
00000060: bb75 18be a027 eb3c f55c 163e 6804 64be
00000070: 6084 d63d 3743 bbbc 506f 5bbd 52cf 0fbe
00000080: e97c 03be 9a62 e83d 5649 04be ed47 4cbe
00000090: 0136 853d 2cde 1b3d d821 073e 27e0 383e
000000a0: 4196 573e 98de fd3d 8f21 b83d d951 b5bd
000000b0: bf1a 313e 8f1a f4bd b61e 873b a287 aa3d
000000c0: 9e44 853d ef0c 54be 0a3d 103e 95df 133d
000000d0: 708d 2f3d 3208 f0bd 5671 c33d fea4 263d
000000e0: 2aa1 363e 6c70 3fbe 0cf1 90bd 97a5 d83c
000000f0: 8978 0c3e 8039 ba3d e76f f1bc aa5c 8dbd
00000100: 93ef 253e 1c06 e8bd 78b9 cb3d 7138 06be
00000110: b2bc 293d 5c03 e639 3663 443e 5ce0 1a3e
00000120: df61 8a3e c3de 05be c285 e2bd 3a9f 8fbd
00000130: 52ce bfbd 5526 a13d cead 883d 5ec3 07be
00000140: 3792 a0bd bda4 343e 53d3 33be 6ccb de3d
00000150: 816a 0bbe 53a2 64bd 7005 1c3e 1fd9 09be
00000160: 7328 7f3d d1de b63d ea08 60be c6fe 303e
00000170: 8727 d43d e431 91be 97c9 77be 3a5c 1e3d
00000180: 50d9 6abe 6f8f c5bd 4943 afbd 1f89 ae3d
00000190: aa98 81be b21f 48bd d48b 363e e146 693e
000001a0: 3e25 f03d be68 b93d 5079 e4bc fd9c 263e
000001b0: e7ca b63d 8dec 2bbe d8af 483e 4eaa 8bbc
000001c0: 72e6 9cbc 1d54 bebc 1e04 473e 41fc 7d3d
000001d0: a231 573e 4b6a 953d 58e8 24be d3e8 343e
000001e0: 4d6c 7e3e effe dbbd f884 2abc 3c7e 8a3d
000001f0: b02e 203d 2af6 73bd 9881 093e 72e4 5cbe
00000200: b665 08be 44ca 70bd 77e1 253e dca1 443e
00000210: 1c7e 0ebe 54ff 32be 6c9a 783c 19f2 b83d
00000220: f54f 313e 4da1 983d cb61 88be 6dd7 153e
00000230: 60a5 4f3d 262a 9f39 8f5b db3d 17f3 acbc
00000240: 8cc4 df3c 7804 e03b 6b00 823d 99d8 e63d
00000250: 9a1f a5bc 4369 0fbe e443 993d 84b6 49bc
00000260: ae39 35be 8241 8b3e 76a1 ccbd 09c5 49be
00000270: baaf 703b e48b d5bc b075 b43d eb9f 0e3e
00000280: a176 583d 668e 2fbd c6a9 d7bd a0ff 593d
00000290: 9a80 d0bd c22c 55be 3320 c7bd 6e2d ba3d
000002a0: a81c 4ebc 1363 f73c b634 1bbe 4d13 b83d
000002b0: b03d 513c 4d49 c83d 2434 01be e974 b1bd
000002c0: 384d 013e cc9e 97bd c6a1 023d 69c2 723e
000002d0: be1b 60be 4b39 b0bd 0860 443e 0344 493e
000002e0: 93cb 473e a965 2fbe 71e1 033e 8cf2 0a3d
000002f0: c23c 17be 9add 19be 6604 9b3b 38d6 d03d
00000300: 665f 243e d8e0 9f3d c627 603d 82e2 23be
00000310: 5e51 103e 962f 943d a361 51be 58e3 07bd
00000320: 2b63 be3d 9264 3a3e 1526 24be fcf6 72be
00000330: 0082 9ebd 9661 00be 7081 2bbd 5f32 8b3d
00000340: 14a8 293e 55f1 8dbd deb9 0c3e 1d0a f13d
00000350: 4fc3 44bd cab5 b6bd c521 203d 3056 e1bd
00000360: f58b 2fbe 5919 3d3e 2639 483d 77d1 1cbd
00000370: 2ab8 213d 0a63 c5bd 586c 2e3e 7eb7 4b3e
00000380: d69f 9fbc 620d d9bd e1e7 04be d0b9 a63c
00000390: 60fd f33d e600 5d3e c141 5bbe e2de 19be
000003a0: 9ca3 77bd 4e78 4cbe 406a ebbd aa5f 88bd
000003b0: fda7 4fbd 7598 84bd cf56 01be 149b d1bd
000003c0: 0973 a03d 471e 29bc 9b5c e3bc 78f4 c1bc
000003d0: c45c 3bbd d900 793d 48cd 75be 83e1 22be
000003e0: 7030 363e ec87 153e af54 613d 8270 8b3b
000003f0: b836 803d df8f 273e fc36 0fbe a7b1 753d
-0.19848639 -0.061734427 -0.15071388 -0.16028026 -0.18625598 0.1690222 -0.21584561 -0.054927524
-0.05406194 -0.03369304 0.2158236 0.06876442 -0.004893841 -0.12823868 0.11730721 0.03358393
0.05177605 -0.1074469 -0.011449205 0.01712995 0.1832588 -0.16444834 -0.007971858 -0.17942992
-0.1488866 0.028705418 0.14683898 -0.22267306 0.10474467 -0.022859199 -0.053572953 -0.1404393
-0.12840618 0.11346932 -0.129186 -0.19949313 0.06504441 0.038053676 0.13196504 0.18054257
0.21053411 0.12395972 0.08990776 -0.08853502 0.17295359 -0.11919128 0.004123534 0.08326651
0.06507228 -0.20708059 0.14085785 0.036101896 0.042859495 -0.11720313 0.095431015 0.040684693
0.17834917 -0.1869523 -0.07077226 0.026446147 0.13717856 0.090929985 -0.029472305 -0.0690244
0.16204672 -0.1132929 0.09947485 -0.13107468 0.04143972 0.00043871521 0.19178471 0.15124649
0.27027795 -0.13073258 -0.110606685 -0.07012792 -0.09365524 0.078686394 0.066737756 -0.1325812
-0.07840388 0.17640968 -0.17561083 0.108786434 -0.13614847 -0.055818867 0.15236449 -0.13461731
0.062294435 0.089292176 -0.218784 0.17284688 0.10359102 -0.28358376 -0.24197994 0.038662173
-0.2293446 -0.096464984 -0.085577555 0.085222475 -0.25311786 -0.048858352 0.17826778 0.22780944
0.117258534 0.09053181 -0.027889878 0.16270824 0.08925419 -0.16789456 0.19598329 -0.017048981
-0.019152854 -0.023233468 0.19435164 0.062008146 0.21015027 0.072956644 -0.16104257 0.1766694
0.24846001 -0.10741984 -0.010407679 0.067623585 0.039107025 -0.059560932 0.13428342 -0.2157152
-0.1332005 -0.058786646 0.1619929 0.1920237 -0.13915294 -0.17480212 0.015173536 0.090305515
0.17315657 0.07452641 -0.2663711 0.1463296 0.050694823 0.00030358246 0.10710823 -0.021112008
0.0273154 0.00683647 0.06347736 0.112717815 -0.02015667 -0.14004998 0.07483652 -0.0123115815
-0.17697784 0.27198416 -0.09991734 -0.19704069 0.0036725835 -0.026067682 0.088115096 0.13928191
0.05284751 -0.04286041 -0.105304286 0.0532223 -0.10180779 -0.20817855 -0.097229384 0.09090696
-0.012580074 0.03019861 -0.15156826 0.08988056 0.012771055 0.09779606 -0.12617546 -0.08664877
0.12627113 -0.07403335 0.03189256 0.23706974 -0.21885583 -0.08604678 0.19177258 0.1965485
0.19511251 -0.17128624 0.12878968 0.033922717 -0.14769271 -0.1502594 0.004730749 0.10197109
0.16052017 0.078065574 0.05472543 -0.16004375 0.14093539 0.07235639 -0.20447402 -0.033175796
0.092962585 0.18202427 -0.16030152 -0.2372703 -0.07739639 -0.12537226 -0.041871488 0.06796717
0.16568023 -0.06930796 0.13742778 0.11769507 -0.048037823 -0.08921392 0.039094705 -0.11002767
-0.17143233 0.184667 0.048882626 -0.0382857 0.039482273 -0.09638031 0.17033517 0.19894215
-0.019485395 -0.10598256 -0.1297908 0.020352274 0.11913562 0.21582374 -0.21411802 -0.1502643
-0.060458764 -0.19967768 -0.11494875 -0.066588715 -0.050697315 -0.06474391 -0.12630771 -0.10234657
0.07834441 -0.01032216 -0.027754119 -0.023676142 -0.045742765 0.060791824 -0.2400409 -0.15906338
0.17791915 0.14602631 0.0550124 0.0042553553 0.06260437 0.16363476 -0.13985819 0.059983876

dnn/hiddenlayer_1/MatMul f4 [64, 128]
00000000: ff3d 293e 96cc 3d3d 832b b8bd 6eb2 52bc
00000010: 1311 a2bd 14a8 453d 410b 5fbd 453b 0ebe
00000020: 0da3 333e 8d53 1cbd 93a5 a8bd 179e 05b9
00000030: 3fe0 843d b3ef 733d 3852 063e 9fdd 6b3d
00000040: 66ad 823d ad75 983a 7079 09be 7fce d4bd
00000050: 7913 153e e3b3 ccbd fb6f dabc c18f a7bc
00000060: 3812 d63d 15e5 b73d a3e7 223e 1482 db3d
00000070: 2943 da3c aa51 11bd a46e d7bc c397 c73d
00000080: 8cec 443e ebb7 313e 3a48 c0bd 6883 a6bd
00000090: 0bee 55bc 7553 d8bd ddf0 5d3a ae2d 6abc
000000a0: d9b9 133e b471 c9bd 949a a73d 9604 a53b
000000b0: f124 f6bd 4c91 eabb 1d27 47bd bb9c 70bd
000000c0: 4fbf f03d 8ae6 38be 8ba7 82bd 0acf 1abe
000000d0: 16a4 b33c f1a4 1fbe ba4f bdbd 48e0 023e
000000e0: 99f6 d83d e526 143e 2eaa 093d 5408 9bbc
000000f0: 0afc f8bd 9a9f de3d 1581 acbd e8d8 293e
00000100: 2f76 283e 99ca f9bd 54a2 be3d c09d cc3d
00000110: 9579 323d 1795 e73d 795b 99bd f189 403e
00000120: d41f 95bd 5f95 d1bd 3c48 c63d 0902 c83d
00000130: 2f1e 8d3d b666 c4bc e75e 9c3d 6958 ecbd
00000140: 2bba d63c 27d8 dc3d 7637 c6bd 0007 053e
00000150: e5c1 e6bd 4d1e 173d 1f83 2d3e cfe7 fa3d
00000160: e953 3a3d 661c bb3d bbf8 a53d cbbe 84bd
00000170: 4c86 32b9 7fda 3cbe 8303 34bc 9b88 4fbd
00000180: 02f1 89bc bde9 9fbc cf0c 83bc 2eef 683c
00000190: 05ac 3bbc 92a7 14bd 52e9 453b 8159 cfbd
000001a0: 0bd8 16be bb9d d6bd a9ac 0ebe c612 96bd
000001b0: 7921 54be 1ec2 e23d 672c 38bc a379 163d
000001c0: dc95 803d 90b9 24bd 8799 863d 0857 ee3d
000001d0: 18a8 2e3e 5aab 09be d3bf 0bbb bc3a 1cbd
000001e0: df17 e8bd 965a e4bc 8f9b 20be bab2 80bd
000001f0: cf38 e6bd bdfc 63bd 3474 28bb 2e47 cbbc
00000200: 7b9e e3bd 4d56 023e f3f8 073e 4d63 30bd
00000210: 1e28 a6bc a422 ca3c 67d9 47be 61c4 05be
00000220: c6fa 7b3d 2af4 003d ae75 4dbe 7fe0 69bc
00000230: 9b3f 2e3e c288 bc3d 16d7 2cbc 8dad 1f3e
00000240: 337f 20be 8752 b5bc d929 ad3d 6508 d73d
00000250: a466 943d 7610 ac3d 095d 6fbd 684a 263e
00000260: 3533 48be da5a e93c c88b f93d b875 2f3d
00000270: 41b3 10be 10ef 24bd 0628 293e 8237 91bd
00000280: aae8 0d3d fc6a da3c 0635 373e 89d5 c2bb
00000290: 3e6e b53c 79d6 5f3e 998b f7bc 5e0d aabd
000002a0: 0da3 403d 999e 7f3d fe19 2b3d e339 943d
000002b0: d4a3 9dbc 3210 5dbc d94c 79bc b529 e23d
000002c0: 4945 6dbd e406 18be cffa b33d 4438 d53d
000002d0: 2a94 1e3e d3b7 de3d 6887 713a b244 153e
000002e0: 77ed 00bd 7b6d f33c 8876 3cbc 3009 023e
000002f0: 09e1 d2bd bb2a 4e3d 98dc 0ebe 181c 103e
00000300: c59b 1cbe b06e 23be 10a0 1bbe dc5f 183e
00000310: fe93 a63d bba7 36bd 20c7 07be 12a4 eabd
00000320: 94a6 17be 1c2e f5bd 2374 02be 225e 283e
00000330: 5301 76be c64c fc3d 2136 6b3d 9294 483d
00000340: fa3f f6bd d4c4 32be d97c 93bd dadf c13d
00000350: 1251 5fbd 401d 843d 4f43 13be 6316 233e
00000360: c2f3 b9bc 6253 60be f23e 773c d5b1 813d
00000370: 8e98 293e e5a6 58bd cfe7 c23b 2d82 d8bd
00000380: 1b2c 033e 2604 90bb be72 113d ae09 2a3e
00000390: 59dd a0bd 656f cf3d 158f babd aec6 723d
000003a0: b6d4 8dbd a1f8 34be cdf5 633d 6893 723c
000003b0: be1b 7e3d 21e6 eebd c3d6 953d 79db 3abe
000003c0: 5505 aebd cfab a93c 257f 11be 62b9 eb3c
000003d0: b0c3 b03d a3f0 293e d1e6 bdbd 1f8d 483c
000003e0: 7d0b d83d b0c8 ea3d 5cf1 593d be0a 28bd
000003f0: 90f4 92bd eaf3 b9bc dc0b 153c 9913 f1bd
0.16527556 0.046337686 -0.08992674 -0.012859924 -0.07913413 0.048255995 -0.054454092 -0.13889797
0.17542668 -0.038165618 -0.08234706 -0.00012742761 0.06488084 0.059554767 0.13117301 0.0575844
0.063807294 0.001163175 -0.13425231 -0.103909485 0.1455821 -0.09995248 -0.026664725 -0.02045429
0.10452694 0.08979241 0.15908675 0.1071817 0.026643353 -0.03547827 -0.026297875 0.09745743
0.1923086 0.17355315 -0.09388776 -0.081305325 -0.013057242 -0.10562793 0.00084663724 -0.014293117
0.14426364 -0.0983614 0.0818378 0.005035947 -0.12018765 -0.007158434 -0.048621286 -0.05874322
0.11755239 -0.18056694 -0.063796125 -0.15118042 0.021928828 -0.15590264 -0.09243722 0.12780869
0.1059391 0.14467962 0.03360956 -0.01892487 -0.12157448 0.10870285 -0.08423058 0.1658665
0.16451333 -0.121968456 0.093083054 0.09991026 0.04357298 0.113077335 -0.0748815 0.1880262
-0.07281461 -0.102335684 0.09681746 0.09766013 0.06890523 -0.023974758 0.07635289 -0.115403004
0.026211819 0.10783415 -0.09678547 0.12990952 -0.11267451 0.03689413 0.1694455 0.12251245
0.04549018 0.09136276 0.08104082 -0.06481703 -0.00017025432 -0.18442725 -0.010987165 -0.050667387
-0.016838554 -0.019520635 -0.015997319 0.014217181 -0.011454587 -0.03629262 0.0030198884 -0.101244934
-0.14730851 -0.104793034 -0.13933052 -0.073277995 -0.20715894 0.11072181 -0.011241055 0.036737096
0.062785834 -0.04021603 0.06572252 0.11637694 0.1705631 -0.13444272 -0.0021324053 -0.03814195
-0.11332678 -0.027875226 -0.15684341 -0.062840894 -0.11241304 -0.055660952 -0.0025704028 -0.024814215
-0.11114212 0.12728234 0.1327856 -0.04306345 -0.020282801 0.024674721 -0.19516526 -0.13063194
0.061518453 0.031482853 -0.20064422 -0.014274715 0.17016451 0.09205772 -0.010549327 0.15593548
-0.15673523 -0.022134079 0.084552474 0.10499648 0.0724614 0.08401577 -0.058438335 0.16239321
-0.19550784 0.028485704 0.12184864 0.042836875 -0.1413088 -0.04026705 0.16519174 -0.070906654
0.034645714 0.026662342 0.1789132 -0.0059458655 0.022147294 0.21859159 -0.030217933 -0.08303331
0.047030497 0.06240711 0.041772835 0.072376035 -0.019243158 -0.013492631 -0.015216076 0.11043111
-0.057927404 -0.14846379 0.08788072 0.104111224 0.15486208 0.108749054 0.00092135975 0.14576986
-0.031476464 0.02971529 -0.011502869 0.12698817 -0.10296828 0.05033372 -0.13951337 0.14073217
-0.15293796 -0.15960193 -0.15197778 0.14880317 0.08133696 -0.044593554 -0.13259554 -0.11457075
-0.14809638 -0.11971685 -0.12739615 0.16442159 -0.24023943 0.12319331 0.05742467 0.048969813
-0.12023921 -0.17457896 -0.07201547 0.094665244 -0.054520674 0.064508915 -0.14381145 0.15926509
-0.02269924 -0.21906808 0.015090691 0.06332747 0.16562101 -0.052893538 0.005948044 -0.10571704
0.12809794 -0.004395026 0.035509817 0.16605255 -0.07854719 0.10128669 -0.09109322 0.059271507
-0.06925337 -0.1767297 0.055654336 0.014805652 0.062038176 -0.11664987 0.07316353 -0.18247785
-0.08497111 0.020711808 -0.14208658 0.02877492 0.086310744 0.16595702 -0.0927254 0.012240677
0.10549066 0.11464059 0.053208694 -0.04102587 -0.07175553 -0.022699315 0.009097066 -0.11771316

dnn/logits/MatMul f4 [1, 64]
00000000: 63dd c63d eee9 75be 6644 b23e a1ca 83bd
00000010: 7394 8c3e 0ed5 b1bd eada 6f3e 9630 873e
00000020: ccd2 b5be 0696 263e dbed e7bd 9b6f bebd
00000030: e19e 9f3e a0a6 183d 3a1d ad3e cba7 ab3e
00000040: e439 4a3e d984 a2be 58c0 96be 7c41 d23d
00000050: 8ba0 973e 665b f3be 517b 16bc 653d 903e
00000060: ecf2 adbe 8eb7 63be b349 a1be b669 e93b
00000070: 885f a13e e213 a33e a966 42be 569e 91be
00000080: e0fc 853d ec00 6e3e 1504 dfbd c7f3 053e
00000090: 9340 b13e a3ad 873e 61b7 243e e941 083e
000000a0: 81ab c83e 752b 00bf d207 d23e 1aa3 b73e
000000b0: 3f72 cd3d e19b 97be 290f 9e3e 84ab 3a3e
000000c0: e1b2 373d e2a3 d83d d2fb 93be ac99 39be
000000d0: e5b7 843b 760d b83e 99a1 7cbe fed0 99be
000000e0: ae93 133e b5bc a9bd b6d5 f8bd 3e6a 093e
000000f0: 3014 97be a844 c13e abe2 813e dca0 45be
0.09710195 -0.24015018 0.3481781 -0.06435133 0.27457008 -0.08683215 0.23423353 0.26404256
-0.35512388 0.16268167 -0.11324664 -0.09298631 0.31175902 0.03726828 0.3381136 0.33526453
0.19748646 -0.3174198 -0.29443622 0.102663964 0.29614672 -0.4753067 -0.009184674 0.2817184
-0.33974397 -0.2223799 -0.3150154 0.0071231974 0.31518197 0.31851107 -0.18984474 -0.28441113
0.06542373 0.23242539 -0.108894505 0.13081275 0.3461958 0.26499662 0.16085579 0.13306393
0.39193347 -0.5006631 0.4102159 0.35866624 0.10031556 -0.29611114 0.3087094 0.1822949
0.044848327 0.10578133 -0.2890306 -0.18125027 0.0040502422 0.3594777 -0.2467102 -0.3004226
0.14411804 -0.08287946 -0.12150137 0.13419434 -0.2950759 0.37747693 0.25368246 -0.19299644
